experiments/models/policy_dnn_100_800_5_10_1000_FF_2.pkl (torch, 279453 bytes, 21 tensors)

weight f4 [64, 1]
-0.9973226 -0.80835927 -0.412849 -0.9457184 -0.06485737 -0.86156434 0.5775529 0.48657915
0.1797801 0.81364626 -0.09408159 0.61860013 -0.6825018 -0.17124438 -0.87862 -0.078662775
-0.66210103 0.8847981 0.6820329 0.7712637 0.30421862 -0.5770303 0.9136898 -0.9952401
-0.64953965 -0.65154433 -0.42776024 0.2000372 -0.76072127 -0.77059394 -0.464241 0.6172541
-0.71173096 -0.8838912 -0.86990464 -0.49132952 -0.25190136 -0.9845431 -0.4668909 0.032931697
0.17194273 -0.16061981 -0.12980406 -0.69190377 0.51691306 -0.19743069 -0.6652991 -0.22120053
-0.13874865 0.9169274 0.510389 -0.4214681 -0.12813252 0.90212464 0.641526 0.28425997
-0.3425982 0.8038617 0.42509866 -0.44436237 0.6941045 0.07841299 -0.73679626 -0.47792253
00000000: 8950 7fbf a2f0 4ebf f260 d3be 9a1a 72bf
00000010: f1d3 84bd 7b8f 5cbf 82da 133f e720 f93e
00000020: 4618 383e 1f4b 503f d9ad c0bd 945c 1e3f
00000030: 70b8 2ebf b05a 2fbe 3eed 60bf f319 a1bd
00000040: 747f 29bf 2182 623f b599 2e3f 8a71 453f
00000050: 8bc2 9b3e 42b8 13bf 93e7 693f 0ec8 7ebf
00000060: 3b48 26bf 9ccb 26bf 6403 dbbe 8dd6 4c3e
00000070: a1be 42bf a545 45bf ffb0 edbe 5d04 1e3f
00000080: 0034 36bf b246 62bf 12b2 5ebf 8b8f fbbe
00000090: 37f9 80be 040b 7cbf 530c efbe 63e3 063d
000000a0: c111 303e 8579 24be 5beb 04be 9b20 31bf
000000b0: 6a54 043f 452b 4abe 0b51 2abf 6482 62be
000000c0: 2014 0ebe c1bb 6a3f daa8 023f abca d7be
000000d0: 2c35 03be a4f1 663f 0c3b 243f 868a 913e
000000e0: 0869 afbe e1c9 4d3f 88a6 d93e 7783 e3be
000000f0: d5b0 313f fd96 a03d ae9e 3cbf 43b2 f4be

weight f4 [64, 1]
-0.74387836 -0.8097106 0.049039286 -0.7179527 0.52885383 0.4666585 0.18231496 0.82543045
-0.46504778 -0.004534073 0.6224732 0.32708308 0.1421483 0.86416674 0.24266155 0.6804908
-0.849442 -0.87606776 -0.9160241 0.039208416 0.8421133 -0.86725503 0.38341826 -0.86394787
-0.65382975 -0.3149088 -0.39510918 0.29715684 -0.83584243 0.9894469 0.16205339 0.34316057
-0.6854247 0.5657872 -0.2317115 -0.49904457 0.18479799 0.42390692 0.11117536 -0.34446934
0.18208745 -0.37197465 -0.32597855 -0.33076563 0.5922968 -0.73992157 0.45352077 0.5399149
-0.66809666 -0.7683065 -0.6779256 -0.8295448 0.85567915 0.863831 -0.14381328 0.9035862
0.30150068 -1.0100629 -0.91979504 -0.48442414 -1.0137863 -0.45502222 0.27511993 -0.0044431984
00000000: d06e 3ebf 3249 4fbf 6bdd 483d c0cb 37bf
00000010: f762 073f dded ee3e c6b0 3a3e 694f 533f
00000020: be1a eebe 9092 94bb 675a 1f3f 6f77 a73e
00000030: 538f 113e 083a 5d3f 457c 783e a534 2e3f
00000040: 0875 59bf fa45 60bf 8e80 6abf 0199 203d
00000050: bd94 573f 6d04 5ebf 664f c43e b02b 5dbf
00000060: 6361 27bf ba3b a1be c04b cabe f124 983e
00000070: c5f9 55bf 644c 7d3f 53f1 253e beb2 af3e
00000080: fe77 2fbf 6ed7 103f c845 6dbe c582 ffbe
00000090: af3b 3d3e 540a d93e e8af e33d 495e b0be
000000a0: 2275 3a3e 7673 bebe a9e6 a6be 1d5a a9be
000000b0: c3a0 173f 806b 3dbf e033 e83e dd37 0a3f
000000c0: 6208 2bbf bcaf 44bf 888c 2dbf 0c5d 54bf
000000d0: ca0d 5b3f 0724 5d3f ca43 13be 6d51 673f
000000e0: 4c5e 9a3e be49 81bf b077 6bbf 7106 f8be
000000f0: c0c3 81bf acf8 e8be 85dc 8c3e 4098 91bb

weight_ih_l0 f4 [256, 64]
0.026679346 0.05737943 0.16376598 0.051115695 0.11281756 0.02002045 -0.14434293 -0.024602128
0.0074221655 0.022672402 -0.06747449 -0.0671515 -0.07041869 0.0515144 0.05558671 0.09118531
0.007039482 -0.06826847 -0.019289453 -0.17109224 0.011741608 0.17101474 -0.13928814 0.17227946
0.0692998 0.17465395 0.15998492 -0.15668122 0.14450411 0.054438666 0.081976846 -0.096059725
-0.050824683 0.062292174 0.08382161 0.11297959 -0.05503147 -0.07059923 0.10977516 -0.07514136
-0.05174575 0.017688112 0.049796663 0.070816375 -0.16582865 0.09487559 0.0634589 0.10806539
-0.015193881 0.040630843 0.033629447 -0.01299841 0.15939876 -0.033818547 0.060258456 0.06367677
0.069845855 -0.029501498 -0.011016497 0.13024333 -0.1639173 -0.04863093 0.16933289 -0.03784545
-0.10176508 -0.01895049 0.016025266 0.037262645 -0.024016792 -0.0033300624 -0.02482989 0.1470016
-0.05150731 0.11268782 0.036167286 0.14021984 0.079196796 -0.07210891 0.058076072 -0.12094703
0.05707128 -0.045711618 -0.052941784 -0.053160608 0.15157369 0.005903577 -0.05462598 -0.12497028
-0.018823013 -0.058285724 0.0006422201 0.11046798 -0.110909015 -0.1437464 -0.019538878 0.11522745
0.046968993 -0.033487767 -0.061180104 0.008197072 0.055663418 -0.13921897 -0.043204457 0.12350045
0.12622559 0.08404705 0.019237678 0.091657445 -0.08940864 -0.005054375 -0.013214668 0.05385615
-0.0038367086 0.11088265 -0.079069786 -0.044707656 0.015581113 0.11247374 0.06030717 0.11220706
-0.0702543 0.020491187 0.14876631 0.052140296 0.118057385 -0.07853201 -0.032976948 -0.14041789
0.1452439 0.13269523 0.103937246 -0.04370103 -0.03862735 -0.051070336 0.014757601 0.06835585
-0.049465798 -0.14945512 0.0048636817 -0.01656336 0.03928953 0.101377934 0.069702305 -0.00013078304
-0.055386767 -0.034989458 -0.08994677 -0.13111988 -0.104123145 -0.08303615 -0.01633465 -0.0004522765
-0.03954972 0.05530981 0.022243546 -0.116058186 0.08499913 -0.08792337 0.01992187 0.06417499
0.13625562 0.09863518 0.010820575 0.059958614 -0.05468329 0.028082885 0.1401905 -0.0868532
-0.15001479 0.13410777 0.084736586 0.118895896 -0.0722719 -0.019569099 0.010632122 -0.0056448253
0.049656894 -0.06043895 -0.06876739 -0.0562494 -0.013863478 -0.116702974 -0.023761412 0.04163571
0.09122284 -0.009564599 -0.124065466 0.016545285 -0.042303465 0.058473907 0.05395773 0.107746005
0.11449953 -0.009616686 -0.08910431 -0.08687356 0.10624201 -0.047755852 -0.001038416 0.033436555
-0.011834473 -0.12133053 -0.012493434 0.019199533 -0.049260173 0.017570866 0.028449772 0.05921391
-0.045767307 0.104646154 0.10235042 0.0726702 -0.09270357 -0.06659169 0.009070609 -0.058621548
0.005524237 -0.054840513 -0.047583587 0.008733623 -0.09559614 0.040071085 -0.0040343413 -0.057540584
-0.051560536 -0.06833979 0.11128422 0.010302477 -0.019789608 -0.01218712 -0.09472731 -0.123901606
-0.10488478 -0.022799077 -0.04853809 0.05214999 0.07715496 -0.07145602 0.088139966 -0.029962836
-0.03188748 0.11388281 -0.08747475 0.039114688 0.044461213 0.034199588 -0.071681485 0.10070227
-0.08280469 -0.050685335 0.11871762 -0.021860508 -0.05993253 -0.1233901 -0.11714955 -0.09535777
00000000: a58e da3c b106 6b3d 45b2 273e b15e 513d
00000010: e50c e73d ed01 a43c a2ce 13be 678a c9bc
00000020: a335 f33b 79bb b93c 1130 8abd ba86 89bd
00000030: ad37 90bd c300 533d e4ae 633d 5dbf ba3d
00000040: 74ab e63b 57d0 8bbd ea04 9ebc ce32 2fbe
00000050: e05f 403c 7d1e 2f3e 8da1 0ebe 076a 303e
00000060: 0eed 8d3d 7cd8 323e 16d3 233e 0b71 20be
00000070: e3f8 133e 14fb 5e3d 7ae3 a73d f6ba c4bd
00000080: 8b2d 50bd 1426 7f3d aaaa ab3d d861 e73d
00000090: ae68 61bd 5496 90bd cdd1 e03d b7e3 99bd
000000a0: 5af3 53bd a9e6 903c 96f7 4b3d 2d08 913d
000000b0: fcce 29be 224e c23d bdf6 813d 6351 dd3d
000000c0: c1ef 78bc 876c 263d 08bf 093d 48f7 54bc
000000d0: 6e39 233e 5185 0abd 92d1 763d f768 823d
000000e0: 580b 8f3d 20ad f1bc 8a7e 34bc 825e 053e
000000f0: f0d9 27be 3a31 47bd 9a65 2d3e d503 1bbd
00000100: 366a d0bd 0f3e 9bbc 6b47 833c b7a0 183d
00000110: ddbe c4bc 2d3d 5abb 0e68 cbbc 9687 163e
00000120: 54f9 52bd dfc8 e63d 2624 143d ca95 0f3e
00000130: ee31 a23d d6ad 93bd 2de1 6d3d 14b3 f7bd
00000140: 93c3 693d 1b3c 3bbd 7cd9 58bd f0be 59bd
00000150: 2236 1b3e cb72 c13b 7ebf 5fbd 6bf0 ffbd
00000160: b832 9abc 03bd 6ebd a95a 283a 093d e23d
00000170: 4424 e3bd 4232 13be ff0f a0bc 5ffc eb3d
00000180: 8f62 403d 782a 09bd fd97 7abd 034d 063c
00000190: 53ff 633d 6b8f 0ebe 28f7 30bd ceed fc3d
000001a0: 4841 013e dc20 ac3d 5698 9d3c e6b6 bb3d
000001b0: e11b b7bd 2c9f a5bb 5682 58bc 4498 5c3d
000001c0: 4a71 7bbb 7116 e33d 57ef a1bd 601f 37bd
000001d0: ed47 7f3c a258 e63d a704 773d d1cc e53d
000001e0: 7de1 8fbd 22dd a73c 3256 183e 1091 553d
000001f0: 12c8 f13d 64d5 a0bd d612 07bd b5c9 0fbe
00000200: d1ba 143e 42e1 073e 0ddd d43d daff 32bd
00000210: b637 1ebd 212f 51bd ddc9 713c 27fe 8b3d
00000220: a69c 4abd c30a 19be 855f 9f3b e2af 87bc
00000230: 0fee 203d 3c9f cf3d 15c0 8e3d ce22 09b9
00000240: 3cdd 62bd 1b51 0fbd 0336 b8bd 4a44 06be
00000250: 843e d5bd db0e aabd 3ed0 85bc 861f edb9
00000260: e3fe 21bd 8a8c 623d 1938 b63c eaaf edbd
00000270: 0614 ae3d 2b11 b4bd 3133 a33c 2d6e 833d
00000280: 9886 0b3e 3e01 ca3d c848 313c 2a97 753d
00000290: 96fb 5fbd 140e e63c 198e 0f3e 17e0 b1bd
000002a0: 7a9d 19be 8c53 093e 608a ad3d b17f f33d
000002b0: 4a03 94bd 604f a0bc 5a32 2e3c 3af8 b8bb
000002c0: 0765 4b3d d58e 77bd ebd5 8cbd c565 66bd
000002d0: a423 63bc f801 efbd 4ba7 c2bc 358a 2a3d
000002e0: 0ad3 ba3d d6b4 1cbc 0916 febd fa89 873c
000002f0: 6646 2dbd 5682 6f3d c802 5d3d f0a9 dc3d
00000300: bb7e ea3d 4e8f 1dbc 527c b6bd c4ea b1bd
00000310: 6995 d93d a49b 43bd 761b 88ba c5f4 083d
00000320: 61e5 41bc 247c f8bd 43b1 4cbc 5748 9d3c
00000330: 09c5 49bd c7f0 8f3c 7f0f e93c 498a 723d
00000340: 8076 3bbd b950 d63d 199d d13d 1dd4 943d
00000350: 5fdb bdbd 3961 88bd e49c 143c 261d 70bd
00000360: a904 b53b 72a0 60bd 02e7 42bd 7817 0f3c
00000370: e9c7 c3bd 9421 243d 8232 84bb adaf 6bbd
00000380: 2431 53bd bbf5 8bbd fbe8 e33d b8cb 283c
00000390: d11d a2bc 7cac 47bc 6400 c2bd 20c0 fdbd
000003a0: d5cd d6bd 21c5 babc e0cf 46bd 3a9b 553d
000003b0: 6b03 9e3d 8957 92bd ba82 b43d 9f74 f5bc
000003c0: 729c 02bd 643b e93d f625 b3bd b936 203d
000003d0: f61c 363d de14 0c3d becd 92bd fe3c ce3d
000003e0: 8195 a9bd 6d9b 4fbd 3922 f33d cf14 b3bc
000003f0: d07b 75bd f3b3 fcbd 1aec efbd ef4a c3bd

weight_hh_l0 f4 [256, 64]
-0.13831694 -0.03047509 -0.034878965 -3.9289313e-05 0.1004677 -0.015178532 -0.08374793 0.06680752
0.1045239 -0.055749815 0.014663063 -0.05940129 -0.03593406 -0.05693657 -0.06910679 0.022523059
0.037258282 -0.07558115 -0.047425702 -0.08058855 0.11480362 -0.004840377 -0.078882344 0.15956713
0.04028886 -0.055354014 0.1114051 0.06470296 0.08102277 0.062054142 -0.13822807 -0.001519123
0.04579256 0.015525789 0.0044808285 0.038234513 0.08513675 0.079346314 -0.0066994624 0.0786662
0.0025962838 -0.065468274 -0.07402833 0.02929883 0.022270374 0.093434356 0.09525885 0.028308848
-0.048806522 0.15137379 -0.071347974 0.04647905 0.17082033 -0.06370472 0.0972836 -0.13187443
0.017602764 -0.033373665 0.12303441 0.10108679 0.08794615 -0.039771438 -0.05634065 0.09814335
-0.010104194 0.06539478 0.04594356 0.12772316 0.018174684 0.014009604 -0.041110676 -0.00279755
-0.023770455 0.028949542 0.10792613 0.11039295 0.11775305 -0.018520253 -0.05022824 -0.03449434
0.07325028 -0.07817527 0.14773336 -0.016745452 -0.12496522 -0.13445951 -0.15188587 0.11031743
-0.027247647 0.1466563 -0.10584087 -0.035949044 -0.05253201 -0.15255708 -0.011914402 -0.07233412
0.035297856 0.012456314 -0.14119335 -0.04029691 0.01539227 0.1536462 0.044669326 0.07120015
-0.08105549 0.1261015 -0.055985108 -0.14289267 -0.025362507 -0.06984723 0.008391879 -0.104738966
0.0074439957 -0.014027198 0.024780918 -0.06268845 -0.08483069 0.12132141 -0.07939868 0.09780593
-0.029698562 -0.016613675 -0.057762425 0.10503107 -0.043821804 0.061705496 0.12017326 -0.08523529
-0.015548237 -0.002187649 0.029912688 0.024361264 0.017767385 -0.018180003 -0.05905573 0.003063568
-0.089205965 0.08438006 0.00677346 0.03323115 -0.16181098 -0.052156158 0.06091562 -0.046904266
-0.0401804 -0.048330978 0.057579406 0.06004568 0.053316366 0.07409864 -0.08414499 0.11104903
-0.03465311 -0.06483879 -0.049285978 0.06760737 0.017009875 0.04816475 -0.13489872 -0.1257789
-0.10737551 0.06826528 0.087501295 -0.02540832 -0.09546177 -0.10598453 0.10271416 -0.04131491
-0.0942388 0.0771199 -0.1128817 -0.103989884 0.12839536 -0.06174757 -0.08322101 0.08755438
0.015791979 0.024899857 -0.085819684 0.0040164473 0.13542213 0.17941916 0.12607278 0.040982813
-0.041946705 -0.066125564 -0.05189824 -0.07552427 0.09207965 -0.11245568 -0.07731313 0.010771491
0.029401673 0.060578346 0.04829426 0.13053231 0.057960663 0.0049589714 0.0614708 0.091877125
-0.055886377 0.035943642 -0.11447794 -0.039792396 -0.09819202 0.13201004 -0.12738106 -0.07228021
-0.01553687 0.0035578883 -0.034167957 0.090906344 -0.08767986 0.042580012 0.054303225 -0.04070519
0.018173859 0.03819813 0.10032138 0.07947511 0.066959724 0.07228401 -0.12573126 0.07290094
0.12199651 -0.0035391808 0.055891834 -0.068723716 -0.013029535 -0.07517136 -0.08677002 -0.10419018
-0.09996662 0.056066234 0.10433671 0.09681688 0.13112025 -0.14577669 -0.0006471353 -0.0355963
0.060635537 -0.09838093 -0.14450437 0.016913475 -0.09151194 -0.024237067 -0.048372738 0.072532974
0.042173132 -0.0041994825 -0.026395341 0.013130089 0.031974 -0.09407651 0.033172324 -0.06276815
00000000: f5a2 0dbe e5a6 f9bc 3fdd 0ebd 94ca 24b8
00000010: 02c2 cd3d 61af 78bc 0984 abbd 62d2 883d
00000020: a010 d63d eb59 64bd 583d 703c c44e 73bd
00000030: 982f 13bd 5236 69bd dc87 8dbd 4782 b83c
00000040: 249c 183d 4aca 9abd 7441 42bd 9c0b a5bd
00000050: 291e eb3d 069c 9ebb 118d a1bd 9165 233e
00000060: ef05 253d e4ba 62bd 5b28 e43d fc82 843d
00000070: 44ef a53d 7c2c 7e3d a98b 0dbe 4f1d c7ba
00000080: fb90 3b3d e15f 7e3c ead3 923b cb9b 1c3d
00000090: 2d5c ae3d 5280 a23d 2a87 dbbb bf1b a13d
000000a0: 6a26 2a3b 3b14 86bd 2a9c 97bd 1a04 f03c
000000b0: 5c70 b63c 835a bf3d 1217 c33d f5e7 e73c
000000c0: 59e9 47bd bb01 1b3e e31e 92bd d160 3e3d
000000d0: 86eb 2e3e 9f77 82bd a03c c73d 170a 07be
000000e0: ac33 903c d3b2 08bd 77f9 fb3d 9706 cf3d
000000f0: 1c1d b43d 60e7 22bd 74c5 66bd 61ff c83d
00000100: 108c 25bc b3ed 853d 502f 3c3d dcc9 023e
00000110: 13e3 943c 8a88 653c ab63 28bd 1a57 37bb
00000120: 42ba c2bc 9727 ed3c 6008 dd3d b315 e23d
00000130: 8328 f13d c9b7 97bc 21bc 4dbd f049 0dbd
00000140: 3e04 963d 5b1a a0bd 6a47 173e c22d 89bc
00000150: c4ed ffbd c1af 09be f887 1bbe 1bee e13d
00000160: 7536 dfbc 122d 163e 19c3 d8bd 4e3f 13bd
00000170: ce2b 57bd ec37 1cbe a034 43bc e923 94bd
00000180: 7c94 103d 9115 4c3c fd94 10be 5f0e 25bd
00000190: dc2f 7c3c 6e55 1d3e 2ff7 363d 62d1 913d
000001a0: 6c00 a6bd c020 013e a450 65bd 7552 12be
000001b0: 08c5 cfbc 110c 8fbd 177e 093c 6281 d6bd
000001c0: c3ec f33b 55d2 65bc 5a01 cb3c cd62 80bd
000001d0: b6bb adbd 5c77 f83d c69b a2bd 7a4e c83d
000001e0: 664a f3bc 6719 88bc 4b98 6cbd 881a d73d
000001f0: 7e7e 33bd e7be 7c3d 661d f63d d78f aebd
00000200: 08be 7ebc a95e 0fbb 740b f53c 4691 c73c
00000210: e88c 913c 3bee 94bc 6ce4 71bd 24c6 483b
00000220: 9eb1 b6bd 74cf ac3d e7f3 dd3b 631d 083d
00000230: c7b1 25be b2a1 55bd a882 793d b01e 40bd
00000240: 3494 24bd b4f6 45bd 62d8 6b3d 75f2 753d
00000250: 4362 5a3d 07c1 973d 3554 acbd ad6d e33d
00000260: 6bf0 0dbd 33ca 84bd 18e0 49bd bc75 8a3d
00000270: 4b58 8b3c 6748 453d e422 0abe 2fcc 00be
00000280: b1e7 dbbd abce 8b3d e133 b33d 1c25 d0bc
00000290: 7681 c3bd 6b0e d9bd cd5b d23d d339 29bd
000002a0: 4600 c1bd 0af1 9d3d 852e e7bd a6f8 d4bd
000002b0: 137a 033e 05eb 7cbd c76f aabd b64f b33d
000002c0: 2e5e 813c c9fa cb3c 3bc2 afbd 679c 833b
000002d0: 19ac 0a3e a8b9 373e 3919 013e 98dd 273d
000002e0: 4fd0 2bbd d76c 87bd 4093 54bd 78ac 9abd
000002f0: 4194 bc3d 2a4f e6bd 5956 9ebd e87a 303c
00000300: c7db f03c 0021 783d 34d0 453d 43aa 053e
00000310: 2968 6d3d de7e a23b cec8 7b3d 132a bc3d
00000320: 1de9 64bd a439 133d 6973 eabd 5afd 22bd
00000330: e618 c9bd a42d 073e 2e70 02be a607 94bd
00000340: 5b8e 7ebc 762b 693b b3f3 0bbd 1b2d ba3d
00000350: 8091 b3bd 6168 2e3d 0f6d 5e3d 7cba 26bd
00000360: 58e1 943c a475 1c3d 4c75 cd3d d9c3 a23d
00000370: 2e22 893d a409 943d b2bf 00be 174d 953d
00000380: 4ed9 f93d 9af1 67bb d6ee 643d 05bf 8cbd
00000390: d579 55bc 71f3 99bd 7bb4 b1bd a961 d5bd
000003a0: 4dbb ccbd b5a5 653d 7cae d53d ee47 c63d
000003b0: 6344 063e 7c46 15be 84a4 29ba 6dcd 11bd
000003c0: f85c 783d f17b c9bd f4f8 13be 218e 8a3c
000003d0: 9d6a bbbd d08c c6bc 7e22 46bd 2b8c 943d
000003e0: bcbd 2c3d d09b 89bb 0b3b d8bc 961f 573c
000003f0: 2bf7 023d 2fab c0bd b4df 073d 968c 80bd

bias_ih_l0 f4 [256]
-0.09964695 0.18140824 0.1571896 0.13608074 0.048842218 0.15503083 0.011154079 0.009204805
0.11286753 0.123577006 0.10215213 0.13600877 0.073020644 -0.02831998 -0.05650131 0.15070717
-0.074278705 -0.094261535 -0.06777509 0.13340908 -0.06697086 -0.07946334 -0.09450924 0.051584084
0.09974487 0.0522363 0.061706338 0.047093067 0.101954125 0.13076943 0.021402901 -0.020439578
-0.038658332 0.15249026 -0.052293018 -0.0113581065 0.040026207 0.03302835 -0.05134874 0.15440741
0.06553876 0.09910194 0.07493942 0.029069196 0.10618441 0.06126375 -0.00038389163 0.12094561
0.076415844 -0.07053141 0.06780945 -0.059905425 -0.078055725 -0.04392586 -0.01898623 -0.11327055
0.11661073 -0.04249922 0.097336195 -0.08267524 0.049879383 -0.040327087 0.07412007 0.16040415
0.06682643 0.054771062 -0.13743539 0.013433432 -0.13184401 0.008685528 -0.025297564 -0.06647925
0.09753455 -0.024397766 0.06609423 0.044020247 -0.13328734 0.0066867834 -0.13309969 -0.11684785
-0.056586605 0.091954924 -0.115496464 -0.075795956 -0.121504635 0.074763805 -0.10744303 -0.14908503
-0.020820925 -0.107798874 -0.09438946 -0.010870533 -0.0031812564 -0.14319041 0.037382722 0.10713178
-0.03809991 -0.070114054 -0.034706287 -0.185865 0.012183879 0.0299598 0.0701019 0.014781984
-0.12893082 -0.13101853 0.09524873 -0.12507662 -0.05980873 -0.07129742 -0.09398035 0.08618049
-0.14517602 0.07499626 0.034067184 0.04594831 -0.13594915 0.08660076 -0.1541718 0.08384433
-0.053959906 0.046643898 -0.07236455 -0.009193755 -0.0060043377 -0.13671686 -0.09992559 -0.058132183
0.107759245 -0.107367605 0.02228134 0.01011198 -0.010378908 0.004898856 0.08477623 0.10980532
-0.044527523 -0.09551037 0.09192144 0.17012993 -0.024322605 0.04814668 -0.15154356 -0.0005271721
-0.004683894 -0.055818625 -0.13733453 -0.01360814 -0.031308312 0.12860613 0.0032105409 -0.086497806
0.14612532 -0.052064423 -0.06824275 -0.0071367747 0.088592924 0.021848908 0.07661489 0.13225715
-0.01607491 0.069333285 0.05854915 -0.084113896 0.007809838 0.056687176 -0.029699117 0.036444895
-0.08445261 -0.04334814 -0.042363267 0.16986537 0.10257612 -0.07337535 -0.030819694 -0.024355054
-0.11395908 -0.04321221 0.031028768 -0.03299122 -0.10532341 0.10421225 -0.035292123 0.110110566
-0.06301174 0.13432364 -0.063628234 0.013436604 0.11689085 0.042869598 -0.036164645 -0.09779201
-0.07510071 0.13525859 0.007536007 -0.016276602 0.15203077 0.2011149 0.10709078 -0.004262363
0.034903433 0.17687084 0.02765338 0.1735423 0.11493498 -0.04601099 0.13070375 -0.028174402
0.010360271 0.11259466 0.078430705 0.021011354 0.08064633 0.045859143 0.024289075 -0.09833552
-0.13395713 -0.02806036 0.19528876 0.102683246 -0.039356545 -0.043146327 -0.0014184051 0.009727349
-0.009091631 -0.0005716668 0.059643086 -0.05243106 -0.049170464 0.05544273 0.1939683 -0.06944627
0.118959114 0.06297963 0.08119051 -0.03903268 -0.028051054 -0.16017094 0.09431444 0.17814389
0.11960018 -0.036472425 -0.12449539 0.026381867 0.06869199 0.14659214 0.1635919 0.048865084
0.088140585 -0.106595755 -0.022946302 0.003043054 0.104605034 -0.019948121 -0.021004055 0.15497974
00000000: b313 ccbd 15c3 393e 4ff6 203e c058 0b3e
00000010: c70e 483d 67c0 1e3e 99bf 363c c0cf 163c
00000020: 1727 e73d f115 fd3d 2335 d13d e245 0b3e
00000030: d98b 953d 4dff e7bc eb6d 67bd fb52 1a3e
00000040: 6f1f 98bd 310c c1bd abcd 8abd 649c 083e
00000050: 0528 89bd adbd a2bd 0f8e c1bd d549 533d
00000060: 0a47 cc3d bbf5 553d c9bf 7c3d a9e4 403d
00000070: 53cd d03d 6ce8 053e 2355 af3c e770 a7bc
00000080: 3358 1ebd 6826 1c3e 3431 56bd 5a17 3abc
00000090: 85f2 233d bc48 073d 0e53 52bd fa1c 1e3e
000000a0: 2f39 863d f5f5 ca3d d779 993d 8622 ee3c
000000b0: 3677 d93d b3ef 7a3d 1045 c9b9 55b2 f73d
000000c0: e97f 9c3d c672 90bd aedf 8a3d 645f 75bd
000000d0: aedb 9fbd 9aeb 33bd 0389 9bbc 64fa e7bd
000000e0: 9bd1 ee3d aa13 2ebd 3358 c73d a351 a9bd
000000f0: 534e 4c3d 042e 25bd 43cc 973d fc40 243e
00000100: 4cdc 883d 9f57 603d ddbb 0cbe e617 5c3c
00000110: 1e02 07be bf4d 0e3c d63c cfbc 4626 88bd
00000120: 32c0 c73d d3dd c7bc 695c 873d 934e 343d
00000130: 7a7c 08be ce1c db3b 494b 08be ed4d efbd
00000140: 5bc7 67bd dd52 bc3d 6989 ecbd e93a 9bbd
00000150: 6cd7 f8bd c41d 993d 170b dcbd bfa9 18be
00000160: a590 aabc a8c5 dcbd 434f c1bd 521a 32bc
00000170: a07c 50bb 82a0 12be a01e 193d e867 db3d
00000180: a70e 1cbd f597 8fbd 2e28 0ebd 6553 3ebe
00000190: e49e 473c 416e f53c 9691 8f3d 2230 723c
000001a0: 7106 04be b929 06be c411 c33d 1614 00be
000001b0: 00fa 74bd 6204 92bd c578 c0bd 667f b03d
000001c0: 06a9 14be a497 993d 088a 0b3d 4c34 3c3d
000001d0: 4136 0bbe bd5b b13d 36df 1dbe 93b6 ab3d
000001e0: 1005 5dbd ac0d 3f3d dd33 94bd 67a1 16bc
000001f0: 09c0 c4bb 81ff 0bbe caa5 ccbd 031c 6ebd
00000200: e1b0 dc3d 8ce3 dbbd 5b87 b63c b8ac 253c
00000210: 4c0c 2abc 9586 a03b 299f ad3d 9de1 e03d
00000220: 7e62 36bd f19a c3bd 4f41 bc3d 8a36 2e3e
00000230: 3340 c7bc 7435 453d 3c2e 1bbe ec31 0aba
00000240: 5a7b 99bb 12a2 64bd 6ca1 0cbe adf4 5ebc
00000250: 253d 00bd 53b1 033e f067 523b c325 b1bd
00000260: e0a1 153e 8141 55bd dbc2 8bbd 9bdb e9bb
00000270: 3570 b53d 7bfc b23c 44e8 9c3d 6b6e 073e
00000280: 88af 83bc 9cfe 8d3d 3cd1 6f3d e843 acbd
00000290: abe9 ff3b d030 683d 904b f3bc 3e47 153d
000002a0: 7df5 acbd d28d 31bd 1b85 2dbd 30f1 2d3e
000002b0: 6e13 d23d d145 96bd 9579 fcbc 4084 c7bc
000002c0: 6163 e9bd 49ff 30bd 0b30 fe3c cd21 07bd
000002d0: cdb3 d7bd 3b6d d53d 798e 10bd a681 e13d
000002e0: 4d0c 81bd 238c 093e 854f 82bd 3425 5c3c
000002f0: 7864 ef3d 0898 2f3d 6121 14bd 2d47 c8bd
00000300: 67ce 99bd 3a81 0a3e 9cf0 f63b 8256 85bc
00000310: f4ad 1b3e 10f1 4d3e 6952 db3d 4bab 8bbb
00000320: e7f6 0e3d a11d 353e 5789 e23c 13b5 313e
00000330: 0863 eb3d 0576 3cbd 34d7 053e 01ce e6bc
00000340: 20be 293c 0798 e63d 47a0 a03d 0120 ac3c
00000350: e729 a53d ccd6 3b3d e2f9 c63c 2264 c9bd
00000360: 0f2c 09be d7de e5bc c7f9 473e 984b d23d
00000370: 5434 21bd 34ba 30bd c7e9 b9ba 755f 1f3c
00000380: 10f5 14bc e9db 15ba 4f4c 743d f3c1 56bd
00000390: f866 49bd eb17 633d a09f 463e d939 8ebd
000003a0: d6a0 f33d 77fb 803d 3647 a63d bbe0 1fbd
000003b0: 53cb e5bc da03 24be ee27 c13d 5a6b 363e
000003c0: f0f0 f43d 1c64 15bd 70f7 febd c91e d83c
000003d0: 63ae 8c3d 401c 163e a384 273e c126 483d
000003e0: 0d83 b43d e04e dabd e2f9 bbbc f96d 473b
000003f0: 2a3b d63d 3e6a a3bc b210 acbc 02b3 1e3e

bias_hh_l0 f4 [256]
0.04860489 0.0791558 -0.049058992 0.13644786 0.08937959 0.06125762 -0.015054354 -0.09707314
0.077536695 0.04443643 0.13011119 0.04242476 0.05451279 0.15792926 0.07706476 -0.0096975835
-0.071871735 0.07601131 -0.007827221 -0.0031697499 -0.09275519 -0.054768737 0.10885099 -0.09053005
0.011482789 -0.036544196 0.08098555 0.056157112 -0.030498674 0.017272262 -0.012539512 -0.13814695
0.044389665 0.079924144 -0.016139483 -0.017310219 0.09635473 0.12040769 0.16200635 0.0052964916
0.1270758 0.01802968 0.12605695 0.08667586 -0.03566182 -0.053263377 -0.029958105 0.08947201
0.11738469 -0.04506458 -0.11885584 0.014544215 -0.069299124 0.09669374 0.11243356 0.057242848
0.088874176 0.11085727 -0.015969466 -0.042619877 -0.0033092673 -0.09974153 0.0011228428 0.037476584
0.042921882 -0.16343099 0.0098047685 -0.06925411 -0.12117844 0.05992714 -0.033957195 -0.07893686
0.06810692 -0.027957931 -0.11715016 0.073799275 -0.041384436 -0.08314589 0.010329772 -0.13101617
-0.13760643 0.07066621 -0.018918268 -0.060913585 -0.11497308 -0.13873202 -0.060444612 0.04330262
-0.074451216 -0.051596902 -0.09693193 -0.12425586 0.0891612 0.015481505 -0.10608536 -0.09747816
-0.072241664 -0.14294972 0.09551826 -0.049289532 -0.07885059 -0.13261193 -0.10906114 -0.13572499
-0.12002671 -0.14352831 -0.082959026 -0.072184235 -0.008222338 -0.104664795 -0.03135166 -0.053433478
-0.020206174 -0.12463643 -0.07229388 0.118507296 0.028033175 -0.03872287 -0.07580969 0.120479
-0.10660708 -0.06963435 -0.08606117 -0.0051754573 -0.02504522 -0.11424846 -0.050877623 -0.06081557
0.07493506 -0.10651636 0.12683925 -0.16554868 0.096241064 -0.02659713 0.12463224 -0.08579708
0.011609466 -0.03433792 0.09543427 0.15306316 0.11371246 -0.005398596 -0.066547886 -0.079036005
-0.10825458 0.08266468 0.041145414 -0.12650898 -0.04587224 0.05802995 0.13515718 0.11983543
-0.006079903 -0.09591919 -0.120879084 0.063250735 0.07307896 -0.06441692 0.039000057 -0.07806815
-0.040156383 0.15226491 0.048127964 0.11064727 -0.025991237 0.041521706 -0.009243168 -0.036517214
0.076933935 -0.11114315 -0.14170907 0.10346953 -0.059077322 -0.11998645 0.16257872 -0.014664759
-0.032348577 -0.13625824 -0.007947098 -0.020800184 -0.11692916 0.07160378 -0.1198448 -0.06166481
-0.015383041 0.13593574 -0.041622844 0.06671935 -0.011568346 0.07987499 -0.07938608 0.11951466
0.016674878 0.028135566 0.019344222 0.05497414 -0.093848065 0.18554856 -0.0713038 -0.07287298
-0.013500645 0.07056978 0.07599216 0.0015027148 0.126742 -0.024195803 -0.031305213 0.012455816
0.09366593 -0.05659495 -0.0045482838 0.10770087 -0.09654966 0.14660199 -0.08474501 -0.06254224
-0.083967574 0.044516504 0.124698326 0.03908585 0.10170739 0.119827226 -0.05201337 -0.047040123
0.04059786 0.06048639 -0.078830026 -0.049696624 0.003097525 -0.07403758 0.14114942 0.096731134
-0.0045448504 0.13430896 0.09227272 -0.011609092 0.09932508 0.044793744 0.08263408 0.11824208
-0.05097036 -0.023061572 -0.096648246 -0.045548715 0.055980515 0.19177921 0.073683634 -0.061953105
-0.052311342 0.026024057 -0.042445023 -0.06706345 0.057857975 -0.069129564 -0.09998642 0.016422989
00000000: ec15 473d 701c a23d 15f2 48bd fdb8 0b3e
00000010: a50c b73d 45e9 7a3d 8aa6 76bc 48ce c6bd
00000020: 8fcb 9e3d f902 363d de3b 053e 96c5 2d3d
00000030: ce48 5f3d 35b8 213e 21d4 9d3d 9de2 1ebc
00000040: 7d31 93bd d1ab 9b3d bf3d 00bc 94bb 4fbb
00000050: 6ff6 bdbd 2f55 60bd 45ed de3d d267 b9bd
00000060: 4f22 3c3c 5eaf 15bd c1db a53d 0005 663d
00000070: 5bd8 f9bc 8f7e 8d3c 8672 4dbc 6576 0dbe
00000080: f0d1 353d 45af a33d f336 84bc 29ce 8dbc
00000090: a155 c53d 4f98 f63d fee4 253e 318e ad3b
000000a0: 2920 023e fbb2 933c 1315 013e 1d83 b13d
000000b0: 2112 12bd b32a 5abd b36a f5bc 1a3d b73d
000000c0: 6267 f03d a395 38bd b16a f3bd dc4a 6e3c
000000d0: b3ec 8dbd 5e07 c63d 9143 e63d 7a77 6a3d
000000e0: aa03 b63d 2309 e33d 66d2 82bc 2e92 2ebd
000000f0: 4be0 58bb 4a45 ccbd 5a2c 933a 0c81 193d
00000100: dbce 2f3d 745a 27be 2ea4 203c 19d5 8dbd
00000110: 672c f8bd 2976 753d b316 0bbd a6a9 a1bd
00000120: a47b 8b3d 0808 e5bc 6cec efbd 1324 973d
00000130: ba82 29bd 6448 aabd 343e 293c 1a29 06be
00000140: b3e8 0cbe 72b9 903d 7cfa 9abc 8680 79bd
00000150: 0277 ebbd c40f 0ebe c594 77bd 175e 313d
00000160: e179 98bd 4657 53bd 3f84 c6bd db79 febd
00000170: 269a b63d 23a6 7d3c 4843 d9bd a1a2 c7bd
00000180: 70f3 93bd 6961 12be 149f c33d d2e3 49bd
00000190: 6b7c a1bd 6ccb 07be 725b dfbd 7efb 0abe
000001a0: 90d0 f5bd 16f9 12be 6ce6 a9bd 54d5 93bd
000001b0: fcb6 06bc 7f5a d6bd 996a 00bd 10dd 5abd
000001c0: 6b87 a5bc 6241 ffbd d00e 94bd f4b3 f23d
000001d0: d4a5 e53c df9b 1ebd 1c42 9bbd b2bd f63d
000001e0: d054 dabd 749c 8ebd d740 b0bd e296 a9bb
000001f0: a22b cdbc 19fb e9bd 0e65 50bd bf19 79bd
00000200: 8e77 993d 4025 dabd 26e2 013e 9885 29be
00000210: 091a c53d 39e2 d9bc 303f ff3d 61b6 afbd
00000220: a135 3e3c eba5 0cbd 0b73 c33d 97bc 1c3e
00000230: 14e2 e83d b5e6 b0bb 424a 88bd a1dd a1bd
00000240: 94b4 ddbd 1a4c a93d 1888 283d 928b 01be
00000250: 88e4 3bbd d0b0 6d3d a566 0a3e 476c f53d
00000260: ec39 c7bb 4871 c4bd 748f f7bd 9a89 813d
00000270: 6caa 953d 05ed 83bd 86be 1f3d 32e2 9fbd
00000280: 057b 24bd 55eb 1b3e d421 453d 099b e23d
00000290: 93eb d4bc aa12 2a3d a870 17bc 1393 15bd
000002a0: 8a8f 9d3d 059f e3bd 2f1c 11be d5e7 d33d
000002b0: 10fb 71bd 75bb f5bd 097b 263e 7544 70bc
000002c0: f17f 04bd 4887 0bbe 8c34 02bc 2665 aabc
000002d0: 8e78 efbd 01a5 923d 3171 f5bd 3d94 7cbd
000002e0: 2709 7cbc bd32 0b3e b77c 2abd 28a4 883d
000002f0: 2989 3dbc 8095 a33d 2b95 a2bd 1ac4 f43d
00000300: c199 883c 8f7c e63c c677 9e3c 902c 613d
00000310: 6a33 c0bd 7100 3e3e ba07 92bd 6e3e 95bd
00000320: cf31 5dbc e486 903d c7a1 9b3d bef6 c43a
00000330: a8c8 013e 4736 c6bc e539 00bd 7b13 4c3c
00000340: ecd3 bf3d 1bd0 67bd c509 95bb 4692 dc3d
00000350: d4bb c5bd d51e 163e cb8e adbd 2516 80bd
00000360: 31f7 abbd f056 363d d661 ff3d 7c18 203d
00000370: f74b d03d fa67 f53d f90b 55bd 25ad 40bd
00000380: f149 263d 94c0 773d a371 a1bd b08e 4bbd
00000390: d9ff 4a3b 04a1 97bd 7989 103e f91a c63d
000003a0: f8ec 94bb 4a88 093e 7bf9 bc3d 1034 3ebc
000003b0: f36a cb3d a579 373d 0e3c a93d e728 f23d
000003c0: 4cc6 50bd 9feb bcbc 84ef c5bd 4a91 3abd
000003d0: d34b 653d c561 443e 72e7 963d 8ac2 7dbd
000003e0: 6b44 56bd 6730 d53c d5da 2dbd 9058 89bd
000003f0: 7cfc 6c3d cd93 8dbd aec5 ccbd 8189 863c

weight f4 [64]
1.0214256 1.0311157 1.0126143 0.9931846 1.011004 1.0164744 1.0160837 0.9786362
1.0652568 1.015567 1.0126572 1.000059 1.0553843 1.0400817 1.0430455 1.000125
1.0276791 1.0569166 1.0146415 1.0187746 1.0175241 0.9763662 0.98477584 1.0499207
1.0313483 1.05194 1.0078851 1.0071278 0.97048706 1.0174323 1.0054854 1.0061544
0.98929834 1.0538133 0.9847484 1.031936 1.0405068 1.042331 1.0511637 1.0125713
1.031123 1.027975 1.0352473 1.0568949 1.0165577 0.93945473 1.0187694 1.044947
0.967335 1.0063564 1.0424719 1.0375639 1.0513895 1.0174264 1.0216022 1.0375758
1.0239398 1.031292 1.0092695 0.96083945 1.0392239 1.0290622 1.0458196 1.0470175
00000000: 13be 823f 99fb 833f 589d 813f 5941 7e3f
00000010: 9468 813f d51b 823f 080f 823f e787 7a3f
00000020: 565a 883f 19fe 813f c09e 813f ef01 803f
00000030: d516 873f 6621 853f 8482 853f 1904 803f
00000040: fd8a 833f 0b49 873f c6df 813f 3567 823f
00000050: 3b3e 823f 23f3 793f 451a 7c3f cd63 863f
00000060: 3903 843f f8a5 863f 6102 813f 90e9 803f
00000070: d771 783f 393b 823f bfb3 803f abc9 803f
00000080: a842 7d3f 5be3 863f 7918 7c3f 7b16 843f
00000090: 542f 853f 1a6b 853f 888c 863f f09b 813f
000000a0: d7fb 833f af94 833f fc82 843f 5548 873f
000000b0: 901e 823f 1b80 703f 0967 823f d3c0 853f
000000c0: 44a3 773f 49d0 803f b86f 853f e5ce 843f
000000d0: ee93 863f 073b 823f dcc3 823f 49cf 843f
000000e0: 7610 833f 6001 843f be2f 813f 93f9 753f
000000f0: 4a05 853f 4fb8 833f 6bdd 853f ab04 863f

bias f4 [64]
-0.043086335 -0.05972951 0.019588897 -0.025675772 -0.039013904 -0.06704656 0.039753165 -0.04914795
0.02519752 0.03764159 -0.049163885 0.03691558 -0.052060932 -0.016704679 -0.051828083 -0.0052307877
-0.02582034 0.029158007 0.05144194 0.055372436 0.010907232 -0.02366636 0.06937094 -0.04280708
-0.051383812 -0.035136685 -0.054988433 0.025535043 -0.054707095 -0.031635135 -0.044606727 0.053282574
0.016378019 -0.044065632 0.033673987 -0.04697052 -0.03609238 -0.04134938 -0.036346186 0.002889189
0.03224269 -0.032615986 0.0006623679 -0.03285192 0.056066893 -0.02083124 -0.015088451 -0.054994844
-0.0016824278 0.059819065 0.020449061 -0.04932201 -0.044048168 0.05173946 0.032990918 0.027340556
-0.04501865 0.022566155 0.0582641 -0.0403833 0.020891882 0.0139381895 -0.033896398 -0.048271805
00000000: 4c7b 30bd eea6 74bd e578 a03c ff55 d2bc
00000010: 0bcd 1fbd b54f 89bd 37d4 223d 5c4f 49bd
00000020: 086b ce3c 112e 1a3d 1260 49bd cb34 173d
00000030: d83d 55bd 40d8 88bc af49 54bd 0767 abbb
00000040: 2d85 d3bc c6dc ee3c c9b4 523d 35ce 623d
00000050: 3fb4 323c f4df c1bc 5a12 8e3d 7a56 2fbd
00000060: d577 52bd 7ceb 0fbd 8d3b 61bd de2e d13c
00000070: 8c14 60bd d893 01bd 8bb5 36bd d43e 5a3d
00000080: 322b 863c 2a7e 34bd bced 093d 2964 40bd
00000090: 9ad5 13bd f85d 29bd bddf 14bd 8c58 3d3b
000000a0: e910 043d 5798 05bd c2a2 2d3a bc8f 06bd
000000b0: 66a6 653d 47a6 aabc 8d35 77bc 4642 61bd
000000c0: e984 dcba d604 753d ca84 a73c e005 4abd
000000d0: da6b 34bd c2ec 533d 7c21 073d 4df9 df3c
000000e0: 7a65 38bd a8dc b83c 56a6 6e3d f668 25bd
000000f0: 7425 ab3c 015d 643c f3d6 0abd a8b8 45bd

running_mean f4 [64]
-339.27902 -275.12637 -142.55904 -321.71878 -22.208157 -293.5558 195.63828 165.12077
61.81391 276.64566 -31.970266 209.69023 -232.70277 -58.398773 -299.27356 -27.072523
-225.37402 301.00076 231.81317 261.90448 103.688705 -196.1494 310.1153 -338.8448
-220.85626 -220.76987 -145.11842 67.12124 -258.68716 -261.99988 -159.30534 209.4667
-241.46416 -301.2131 -295.37698 -166.7689 -86.13101 -335.56735 -159.78864 11.477692
57.911697 -53.87139 -43.6087 -235.03726 175.55383 -66.75095 -226.70348 -75.571205
-47.26316 311.8595 173.78572 -143.57237 -43.61468 307.14847 218.77214 96.96365
-116.908134 273.4427 144.13295 -150.89746 235.74559 26.908175 -251.19458 -162.13759
00000000: b7a3 a9c3 2d90 89c3 1d8f 0ec3 01dc a0c3
00000010: 4eaa b1c1 24c7 92c3 66a3 4343 eb1e 2543
00000020: 7241 7742 a552 8a43 1bc3 ffc1 b3b0 5143
00000030: e9b3 68c3 5898 69c2 04a3 95c3 8794 d8c1
00000040: c05f 61c3 1980 9643 2cd0 6743 c6f3 8243
00000050: 9e60 cf42 3f26 44c3 c20e 9b43 226c a9c3
00000060: 34db 5cc3 16c5 5cc3 511e 11c3 133e 8642
00000070: f557 81c3 fcff 82c3 2b4e 1fc3 7a77 5143
00000080: d376 71c3 479b 96c3 41b0 93c3 d7c4 26c3
00000090: 1443 acc2 9fc8 a7c3 e4c9 1fc3 a0a4 3741
000000a0: 94a5 6742 4e7c 57c2 4f6f 2ec2 8a09 6bc3
000000b0: c88d 2f43 7d80 85c2 17b4 62c3 7524 97c2
000000c0: 7a0d 3dc2 04ee 9b43 25c9 2d43 8792 0fc3
000000d0: 6f75 2ec2 0193 9943 abc5 5a43 64ed c142
000000e0: f7d0 e9c2 aab8 8843 0922 1043 c0e5 16c3
000000f0: dfbe 6b43 f143 d741 d031 7bc3 3923 22c3

running_var f4 [64]
68690.54 45138.17 12163.669 61761.914 302.3772 51611.688 22865.057 16226.727
2302.9756 45764.94 623.20435 26252.39 32402.06 2069.2893 53601.37 449.96985
30265.693 54328.34 32254.957 41009.984 6380.497 22911.22 57438.11 68492.72
29085.809 29103.61 12560.056 2683.036 39893.78 41195.52 15194.858 26195.004
34770.453 54354.605 52131.05 16583.305 4446.4053 67421.21 15281.0625 81.63986
1999.5441 1724.4773 1129.3949 32988.7 18369.955 2637.42 30793.564 3439.3533
1318.6012 58293.434 18128.09 12259.528 1159.7727 56264.414 28640.29 5573.498
8194.05 44869.027 12498.087 13574.441 33368.562 440.6346 37773.86 15718.539
00000000: 4529 8647 2c52 3047 ad0e 3e46 ea41 7147
00000010: 4830 9743 b09b 4947 1da2 b246 e88a 7d46
00000020: 9cef 0f45 f1c4 3247 14cd 1b44 c818 cd46
00000030: 1f24 fd46 a154 0145 5f61 5147 24fc e043
00000040: 6373 ec46 5738 5447 eafd fb46 fc31 2047
00000050: fa63 c745 71fe b246 1c5e 6047 5cc6 8547
00000060: 9e3b e346 385f e346 3940 4446 93b0 2745
00000070: c8d5 1b47 85eb 2047 6f6b 6d46 02a6 cc46
00000080: 74d2 0747 9b52 5447 0da3 4b47 9c8e 8146
00000090: 3ef3 8a45 9bae 8347 40c4 6e46 9c47 a342
000000a0: 69f1 f944 468f d744 a32c 8d44 b3dc 0047
000000b0: e983 8f46 b8d6 2445 2193 f046 a7f5 5645
000000c0: 3dd3 a444 6fb5 6347 2ea0 8d46 1d8e 3f46
000000d0: baf8 9044 6ac8 5b47 94c0 df46 fc2b ae45
000000e0: 3308 0046 0745 2f47 5948 4346 c419 5446
000000f0: 9058 0247 3b51 dc43 dc8d 1347 289a 7546

weight_ih_l0 f4 [256, 1]
-0.016306186 0.07524297 -0.095204785 -0.006667734 0.046234302 0.02281638 -0.13364363 0.03238047
-0.0714127 -0.058314152 0.032502368 -0.12061706 0.017782524 0.046502415 0.023759373 -0.14314774
-0.10671568 -0.012948257 -0.1180223 -0.10113008 0.10923843 -0.083146825 0.08293177 0.02513596
-0.023511378 -0.102604 -0.13240714 -0.13496593 -0.12981248 -0.027912503 0.06604345 -0.12888809
-0.11216232 0.07591066 -0.027655924 0.08028928 -0.059968438 0.033757735 0.06992123 -0.0017523823
0.018487856 0.12392312 0.09789909 0.030785965 -0.17058697 0.04968934 -0.077612974 -0.0037890766
-0.07501545 -0.12092173 -0.10183856 0.10035589 0.008054889 0.109844446 -0.009482535 0.08127083
0.034159955 -0.112032846 0.095838055 0.08465073 -0.12776257 -0.11582025 -0.06249593 -0.07533424
0.059409555 -0.08763186 -0.10576899 0.0554614 -0.04640273 0.037906513 0.110626 -0.022651367
0.047653906 -0.031202605 -0.022088738 0.0774652 0.046913862 0.11138792 -0.06469402 0.050208803
0.038144033 -0.025343725 0.10107244 0.03322598 -0.19443052 -0.083309025 -0.008489029 -0.08031136
-0.09342237 0.0058664423 -0.11194457 -0.004836501 -0.13899617 -0.005830603 0.122783475 -0.13966177
0.046303395 -0.059662145 0.016417695 -0.07179473 -0.068900205 -0.1087941 0.059073437 0.03484307
0.03075744 0.06269731 0.10427811 0.0028119665 0.013532263 0.11381242 -0.09515349 -0.105062425
-0.12430033 0.07599838 -0.13787088 0.029331803 0.023105627 -0.007981535 -0.010933427 -0.10085793
0.14983673 -0.020933349 -0.0142183155 -0.03303135 -0.096319154 -0.13483334 -0.098740265 -0.08631708
0.09794251 -0.0031623945 0.093748346 0.07139926 -0.09437323 -0.016062325 -0.06024183 -0.108037375
-0.045869626 -0.124713495 -0.07030601 0.002428733 0.005219309 0.05510602 0.03381293 -0.074504286
-0.06641946 0.03952908 -0.09274964 -0.06594811 0.16154175 -0.06078029 0.041688856 -0.113846116
0.009290168 0.06451247 0.012465729 0.061700024 -0.06535562 0.09168936 -0.016828433 0.024337811
0.11859755 -0.041800685 -0.017189007 0.15217346 0.036549266 0.039935835 0.11376859 0.026033243
-0.093516864 0.062155288 -0.018975692 -0.10600972 -0.013672098 0.059835833 0.0025915117 -0.15236306
-0.0693643 -0.08908452 -0.14534505 0.06763749 0.0807195 0.10268321 0.1538656 0.009733357
0.03854436 -0.104122385 -0.015164158 0.08815205 0.017833143 0.0056246077 0.07996657 -0.11394741
-0.11971506 0.018009698 0.0043474566 0.0714704 0.043627106 -0.11356405 0.040257793 -0.1473183
0.093812175 0.10190366 -0.07523829 -0.06931482 -0.02199966 -0.09943364 -0.064820476 0.027174685
0.035317145 0.13119712 0.040526394 -0.071552224 -0.08132247 0.06773325 -0.10386145 -0.104003884
0.082813516 -0.021771275 -0.14432846 -0.022098321 -0.14716636 0.096745014 0.074155584 -0.119843416
0.051024757 0.10123121 -0.048335657 0.060730174 -0.004730437 -0.028504614 -0.05674294 -0.0043292106
-0.0077666054 -0.06443112 0.030949978 -0.010455836 0.081505075 0.017006265 0.089465044 0.07263899
-0.014546554 -0.1074008 -0.060303714 0.034483843 0.08008297 -0.043236405 0.05866403 -0.07832623
-0.04793541 -0.03210081 -0.13375266 0.123349786 -0.120045744 -0.15964904 0.09299685 -0.079089634
00000000: 8d94 85bc fc18 9a3d bafa c2bd 027d dabb
00000010: 2e60 3d3d 6be9 ba3c e0d9 08be 62a1 043d
00000020: d240 92bd d2da 6ebd 3421 053d 1406 f7bd
00000030: a8ac 913c 5179 3e3d 04a3 c23c 5295 12be
00000040: c08d dabd ed24 54bc adb5 f1bd 4a1d cfbd
00000050: 66b8 df3d e248 aabd 22d8 a93d eee9 cd3c
00000060: ef9a c0bc 0c22 d2bd bd95 07be 8234 0abe
00000070: 90ed 04be c3a8 e4bc ca41 873d 3dfb 03be
00000080: 5cb5 e5bd 0c77 9b3d ad8e e2bc b56e a43d
00000090: 77a1 75bd 8d45 0a3d dd32 8f3d 31b0 e5ba
000000a0: d873 973c 68cb fd3d 517f c83d d932 fc3c
000000b0: 5aae 2ebe 0d87 4b3d 8df3 9ebd 2852 78bb
000000c0: b3a1 99bd d0a5 f7bd bc90 d0bd 6487 cd3d
000000d0: a7f8 033c 20f6 e03d a25c 1bbc 5271 a63d
000000e0: 4feb 0b3d 7a71 e5bd be46 c43d 5d5d ad3d
000000f0: 31d4 02be 2b33 edbd bbfb 7fbd d748 9abd
00000100: 6f57 733d 5578 b3bd 6a9d d8bd 7e2b 633d
00000110: ca10 3ebd dc43 1b3d e28f e23d 5c8f b9bc
00000120: be30 433d 9b9c ffbc 71f3 b4bc 13a6 9e3d
00000130: c028 403d 5a1f e43d 4c7e 84bd bfa7 4d3d
00000140: eb3c 1c3d a59d cfbc 11ff ce3d f717 083d
00000150: cb18 47be ec9d aabd 9115 0bbc 487a a4bd
00000160: 3a54 bfbd 493b c03b 3243 e5bd 837b 9ebb
00000170: 0355 0ebe a50e bfbb e775 fb3d 7f03 0fbe
00000180: a1a8 3d3d 4b60 74bd 677e 863c 1e09 93bd
00000190: 8d1b 8dbd 71cf debd fdf6 713d 9bb7 0e3d
000001a0: 07f7 fb3c 7267 803d c38f d53d f848 383b
000001b0: 6db6 5d3c 7c16 e93d d5df c2bd f82a d7bd
000001c0: 2c91 febd 0aa5 9b3d 062e 0dbe 4049 f03c
000001d0: 0348 bd3c fcc4 02bc 1e22 33bc 9a8e cebd
000001e0: cd6e 193e 6a7c abbc f0f3 68bc e14b 07bd
000001f0: fa42 c5bd c011 0abe 5638 cabd 02c7 b0bd
00000200: 1596 c83d 2d40 4fbb 22ff bf3d c639 923d
00000210: c146 c1bd 2395 83bc 23c0 76bd b342 ddbd
00000220: cae1 3bbd ca69 ffbd 99fc 8fbd 612b 1f3b
00000230: bd06 ab3b dab6 613d 6d7f 0a3d b495 98bd
00000240: ed06 88bd 3fe9 213d 86f3 bdbd cd0f 87bd
00000250: 336b 253e c1f4 78bd efc1 2a3d 2728 e9bd
00000260: ca35 183c 1d1f 843d 0f3d 4c3c 2ab9 7c3d
00000270: 2bd9 85bd a2c7 bb3d c8db 89bc 1760 c73c
00000280: 46e3 f23d 3237 2bbd f6cf 8cbc 5cd3 1b3e
00000290: afb4 153d c293 233d 82ff e83d ab43 d53c
000002a0: c585 bfbd 8b96 7e3d e972 9bbc a01b d9bd
000002b0: ef00 60bc 6b16 753d 5ad6 293b 1005 1cbe
000002c0: df0e 8ebd f271 b6bd 55d5 14be 8685 8a3d
000002d0: 4450 a53d 934b d23d f28e 1d3e a878 1f3c
000002e0: b1e0 1d3d 1e3e d5bd 1773 78bc 1089 b43d
000002f0: d016 923c a14e b83b 83c5 a33d 425d e9bd
00000300: 2b2d f5bd 1389 933c 1c75 8e3b 135f 923d
00000310: 56b2 323d 4594 e8bd 5be5 243d 9cda 16be
00000320: 9920 c03d deb2 d03d 8816 9abd eef4 8dbd
00000330: a238 b4bc dda3 cbbd 99c0 84bd 729d de3c
00000340: b6a8 103d 8a58 063e 01ff 253d f989 92bd
00000350: 658c a6bd bbb7 8a3d 50b5 d4bd fdff d4bd
00000360: 229a a93d ac59 b2bc d7ca 13be 8a07 b5bc
00000370: c7b2 16be 4022 c63d e2de 973d 7770 f5bd
00000380: 56ff 503d 4f52 cf3d 9cfb 45bd 34c0 783d
00000390: c801 9bbb 8282 e9bc 496b 68bd 0ddc 8dbb
000003a0: 027f febb 77f4 83bd cf8a fd3c f44e 2bbc
000003b0: 22ec a63d b950 8b3c 7339 b73d c0c3 943d
000003c0: ab54 6ebc f3f4 dbbd 0701 77bd ee3e 0d3d
000003d0: 8a02 a43d a818 31bd b249 703d 8169 a0bd
000003e0: ec57 44bd 247c 03bd 75f6 08be d09e fc3d
000003f0: 8bda f5bd 0a7b 23be 2275 be3d bff9 a1bd

weight_hh_l0 f4 [256, 64]
-0.09577896 -0.061054584 0.019236296 -0.009814856 0.033633348 -0.09445871 -0.011924772 0.095660724
0.083855875 -0.0437762 0.087679096 -0.06589741 -0.12424191 0.1605814 0.009523384 0.08974617
0.02083209 -0.004155015 -0.01734979 -0.051717214 -0.04105768 -0.1551705 0.031033792 -0.10087984
0.013552842 0.07594388 -0.008416742 -0.01247515 0.119815655 0.019003103 0.08343883 -0.05645199
0.10673591 -0.07906521 -0.17783827 -0.09190436 0.060791116 0.0791605 0.027886124 -0.060288742
-0.058730423 -0.02007625 0.13250814 -0.06272323 -0.05659442 0.13984986 -0.0044305883 0.090665184
0.14283434 0.00072457385 -0.02242899 -0.0573882 -0.025583748 -0.084735304 -0.07972106 0.14367485
-0.044879943 -0.12655537 0.032089744 -0.040639658 -0.015716156 -0.033081762 -0.0031209846 0.034358457
0.088733025 0.012179951 0.06391061 0.002064206 -0.13566758 -0.045295466 0.09721412 -0.007025164
-0.021329232 -0.00817472 0.0456996 -0.047433395 0.043178637 -0.09460181 -0.015907638 -0.06369791
-0.09307855 -0.10336016 0.057163898 0.031825833 0.13852057 -0.03595653 -0.07882424 -0.027006213
0.06408064 0.010734134 0.14742902 0.13466038 0.087919995 -0.022964658 0.011434318 -0.10279422
0.08053369 0.10028703 -0.011124599 0.14149572 -0.07232237 -0.038571067 -0.038944114 -0.05895453
0.09366337 0.07487377 0.031189242 -0.059257407 0.013835316 0.03904276 0.10946547 -0.1034034
0.09391562 -0.03245211 0.10443977 0.05119208 0.11674119 -0.043614514 0.033839412 0.10500695
0.11524977 -0.0019920692 0.016467024 0.1293705 0.037925273 -0.07416762 0.030701656 0.027625693
-0.10205664 -0.021987835 -0.0135834105 0.08579983 0.038932327 0.0010485566 -0.031442318 0.06360479
0.009044164 0.068405576 -0.080119796 0.09646778 -0.039580148 -0.09366489 0.08581954 0.10438646
0.14670023 0.03212867 0.012694787 -0.0012978149 -0.06352672 0.002730144 0.064508416 0.15178847
-0.08284799 -0.024948781 -0.0809674 -0.073507704 0.13448517 0.047284182 -0.1286051 -0.042938963
0.072588414 0.12663998 -0.09660247 -0.090319306 -0.13598402 -0.042927817 -0.15967323 -0.014549972
-0.055003118 -0.121369824 0.07857327 0.1392929 0.041647788 0.044109356 -0.041554477 0.15574223
0.056659542 0.11482884 -0.029250953 -0.065207146 0.076449804 -0.14283796 -0.04728919 -0.014569235
0.14047164 0.08206672 -0.038868412 -0.05823565 0.0015545934 -0.107810944 -0.0028877796 -0.074952066
0.032701306 0.018097127 -0.021015605 0.02370817 -0.0398746 -0.14526291 -0.042491328 -0.10674994
-0.009793768 -0.08406951 0.030848773 0.057022758 -0.12251665 -0.048038498 0.052116264 -0.015904006
0.053119637 -0.10399098 -0.05454297 -0.071629055 0.086328276 -0.12925823 -0.083058015 -0.077791646
-0.06466754 0.004508328 0.013664915 0.054419763 0.022682006 0.0037492875 -0.039642025 -0.10308833
0.07240882 0.06058897 -0.1377127 0.030214265 -0.061000645 0.1207891 0.08324471 -0.117542006
0.09914368 0.0928433 -0.006714285 0.14660093 0.016040822 0.036123063 0.068228714 -0.08258614
-0.009938066 -0.059127796 -0.0031872985 -0.1388845 0.05490492 0.060539644 -0.10933938 0.17277327
-0.023423053 -0.028726313 -0.12532213 -0.09576831 -0.05435022 -0.07569245 0.00713587 -0.07191345
00000000: c227 c4bd 5f14 7abd 7095 9d3c 7dce 20bc
00000010: 1fc3 093d 9173 c1bd 1e60 43bc c5e9 c33d
00000020: a1bc ab3d ac4e 33bd 1991 b33d 39f5 86bd
00000030: 8b72 febd 736f 243e f807 1c3c d7cc b73d
00000040: 0fa8 aa3c cb26 88bb 2621 8ebc 6ed5 53bd
00000050: 192c 28bd 04e5 1ebe 943a fe3c 179a cebd
00000060: bd0c 5e3c 7788 9b3d 60e6 09bc 9264 4cbc
00000070: e961 f53d 65ac 9b3c fae1 aa3d 343a 67bd
00000080: 5b98 da3d f1ec a1bd 3c1b 36be 5a38 bcbd
00000090: 1b00 793d e61e a23d 7171 e43c 54f1 76bd
000000a0: 508f 70bd f376 a4bc 37b0 073e 0975 80bd
000000b0: 8dcf 67bd cd34 0f3e 782e 91bb abae b93d
000000c0: 2a43 123e 54f1 3d3a 00bd b7bc e40f 6bbd
000000d0: 0295 d1bc b489 adbd cc44 a3bd 801f 133e
000000e0: 08d4 37bd bb97 01be 8970 033d c575 26bd
000000f0: 2bbf 80bc be80 07bd 6f89 4cbb 74bb 0c3d
00000100: a9b9 b53d 6b8e 473c 91e3 823d a147 073b
00000110: 71ec 0abe bd87 39bd 3218 c73d 5933 e6bb
00000120: a4ba aebc 43ef 05bc 812f 3b3d 8549 42bd
00000130: 15dc 303d 98be c1bd bc50 82bc 0d74 82bd
00000140: f89f bebd 7eae d3bd b124 6a3d ce5b 023d
00000150: 56d8 0d3e 2847 13bd 9a6e a1bd 223c ddbc
00000160: b63c 833d 39de 2f3c a2f7 163e 69e4 093e
00000170: 660f b43d 6120 bcbc 0157 3b3c c785 d2bd
00000180: d9ee a43d 4963 cd3d f343 36bc 41e4 103e
00000190: c01d 94bd b2fc 1dbd dd83 1fbd 4e7a 71bd
000001a0: 95d2 bf3d 6b57 993d 9580 ff3c e5b7 72bd
000001b0: 85ad 623c 4deb 1f3d 6f2f e03d 29c5 d3bd
000001c0: d556 c03d 81ec 04bd 85e4 d53d c9ae 513d
000001d0: 0116 ef3d 22a5 32bd 329b 0a3d e20d d73d
000001e0: 1208 ec3d 608d 02bb dae5 863c b379 043e
000001f0: 8857 1b3d 31e5 97bd 0a82 fb3c 474f e23c
00000200: 1203 d1bd d51f b4bc f48c 5ebc d2b7 af3d
00000210: 8177 1f3d b96f 893a a9c9 00bd 3a43 823d
00000220: f92d 143c 3918 8c3d d915 a4bd e690 c53d
00000230: cb1e 22bd 61d3 bfbd 28c2 af3d 91c8 d53d
00000240: 9638 163e 5a99 033d ccfd 4f3c 711b aaba
00000250: 4c1a 82bd 37ec 323b fd1c 843d 706e 1b3e
00000260: 35ac a9bd 6361 ccbc 3cd2 a5bd 358b 96bd
00000270: 7bb6 093e 0fad 413d 0eb1 03be c4e0 2fbd
00000280: 3ca9 943d e9ad 013e 84d7 c5bd 54f9 b8bd
00000290: 653f 0bbe 14d5 2fbd 6181 23be 0163 6ebc
000002a0: f34a 61bd be90 f8bd 06eb a03d cca2 0e3e
000002b0: df96 2a3d 03ac 343d 0735 2abd e47a 1f3e
000002c0: d613 683d 622b eb3d b29f efbc 538b 85bd
000002d0: b791 9c3d 1d44 12be 4fb2 41bd cdb3 6ebc
000002e0: ccd7 0f3e 9912 a83d 7c34 1fbd 8188 6ebd
000002f0: 80c3 cb3a fccb dcbd e740 3dbb 7880 99bd
00000300: cef1 053d 6d40 943c eb28 acbc a337 c23c
00000310: 8c53 23bd cdbf 14be 630b 2ebd b69f dabd
00000320: 0a76 20bc a32c acbd 91b6 fc3c b290 693d
00000330: 02ea fabd 04c4 44bd dd77 553d 1e49 82bc
00000340: fa93 593d 39f9 d4bd 7368 5fbd 41b2 92bd
00000350: e1cc b03d 455c 04be 521a aabd 3a51 9fbd
00000360: 6a70 84bd 99ba 933b cfe2 5f3c 42e7 5e3d
00000370: 9dcf b93c 9bb6 753b ad5f 22bd f91f d3bd
00000380: 134b 943d 242c 783d 8f04 0dbe e883 f73c
00000390: d0db 79bd 4760 f73d 347c aa3d ddb9 f0bd
000003a0: d70b cb3d a124 be3d 8103 dcbb 8e1e 163e
000003b0: 0b68 833c c7f5 133d 7fbb 8b3d ec22 a9bd
000003c0: 45d3 22bc fd2f 72bd ffe1 50bb bd37 0ebe
000003d0: fbe3 603d 6bf8 773d 53ed dfbd 7aeb 303e
000003e0: b4e1 bfbc 7253 ebbc 7254 00be 2d22 c4bd
000003f0: 569e 5ebd a504 9bbd 04d4 e93b 5c47 93bd
