experiments/models/policy_dnn_100_800_5_10_1000_FF_2.pkl (torch, 279453 bytes, 21 tensors)

weight f4 [64, 1]
000000 8b a0 80 bf 76 21 4a bf 52 0e e0 be 9b 5d 6d bf
       -1.0048994 -0.7895731 -0.43760926 -0.92720956
000010 c9 81 69 bd 5d 74 62 bf e1 54 0f 3f 45 71 ed 3e
       -0.05700854 -0.88458806 0.5598889 0.4637548
000020 08 b6 45 3e 2a 5c 49 3f e2 80 d8 bd 51 62 19 3f
       0.1930772 0.78656256 -0.105714574 0.59915644
000030 a0 43 2e bf 15 69 25 be b5 47 63 bf d1 a8 ab bd
       -0.6807194 -0.16153367 -0.8878129 -0.083818085
000040 cf 8a 2b bf 2d c9 6a 3f 60 4a 2a 3f 58 01 40 3f
       -0.6700868 0.9171322 0.6651974 0.7500205
000050 cb 02 8b 3e ce 58 0f bf 55 7f 62 3f d8 18 80 bf
       0.27150568 -0.5599488 0.88475543 -1.0007582
000060 f8 97 26 bf 23 cd 28 bf aa 10 cc be 6a 82 45 3e
       -0.65075636 -0.65938014 -0.39856464 0.1928803
000070 32 1b 3e bf 34 f3 42 bf aa 5a fd be d2 39 17 3f
       -0.74260247 -0.7615235 -0.49483234 0.590726
000080 7d f8 33 bf 13 07 6e bf 10 aa 5f bf 1e dc f3 be
       -0.7030104 -0.92979544 -0.8736887 -0.47628874
000090 e3 0f 7a be f9 27 79 bf cd 19 f7 be d8 58 07 3d
       -0.24420123 -0.9732662 -0.48261872 0.033043712
0000a0 ee d8 36 3e 4a ab 13 be 7f d1 c4 bd 8a 8d 27 bf
       0.1785619 -0.1442081 -0.09610271 -0.65450346
0000b0 59 3a 05 3f 01 b7 74 be b2 7e 31 bf 62 dc 53 be
       0.52042156 -0.23897935 -0.69333947 -0.20689538
0000c0 a9 2f 17 be 5f b9 70 3f b5 d7 00 3f c5 9f d8 be
       -0.14764275 0.94032854 0.5032914 -0.42309394
0000d0 44 89 00 be 69 5b 61 3f c9 f6 22 3f ed 34 73 3e
       -0.12552363 0.88030106 0.63657814 0.23750658
0000e0 03 4f ae be 34 48 57 3f a6 1b d4 3e 49 6d d9 be
       -0.34044656 0.8409455 0.41427344 -0.4246619
0000f0 fd a2 31 3f 3b f9 51 3d 61 ff 3a bf 10 4f ea be
       0.69389325 0.051263075 -0.7304593 -0.45763445

weight f4 [64, 1]
000000 2b 41 3c bf 69 dd 53 bf 14 16 67 3c 1a 38 3c bf
       -0.7353694 -0.8275972 0.014104385 -0.73523104
000010 03 9e 08 3f 12 8c e2 3e 9f 4e 4b 3e 4b d9 58 3f
       0.53366107 0.4424749 0.1985421 0.8470656
000020 fe 25 e6 be ec a1 28 bb e0 50 1b 3f b5 f7 b0 3e
       -0.4495086 -0.0025731279 0.6067028 0.34563985
000030 4d 17 0f 3e 5e a1 5e 3f 51 78 6d 3e 5e a4 2b 3f
       0.13973732 0.86964977 0.23190428 0.6704768
000040 a6 1f 57 bf 41 b4 57 bf 89 79 6e bf 99 22 6c 3d
       -0.84032667 -0.8425942 -0.931542 0.057650182
000050 ae 6b 5f 3f ea 18 62 bf 83 b8 d2 3e 0c 78 5b bf
       0.8727368 -0.88319266 0.41156396 -0.8573005
000060 89 ea 26 bf 20 3a 9c be 79 23 d8 be c6 85 9a 3e
       -0.6520162 -0.30513096 -0.42214563 0.30180186
000070 32 71 5a bf 49 6d 7f 3f 19 9f 03 3e a3 56 bc 3e
       -0.8532897 0.9977613 0.1285366 0.3678485
000080 de 85 31 bf cb 78 04 3f 2c 0f 68 be 96 4e 03 bf
       -0.6934489 0.51746815 -0.22662038 -0.5129179
000090 06 62 41 3e 58 5b de 3e 7a 99 b9 3d 28 20 ab be
       0.18885049 0.43429065 0.090624765 -0.3342297
0000a0 d6 9f 2f 3e e6 d8 c5 be d6 bd b5 be e0 4c bc be
       0.17150816 -0.38642043 -0.35496396 -0.367774
0000b0 fb 76 16 3f 49 78 33 bf 89 62 d9 3e 4e d7 0c 3f
       0.587753 -0.70105416 0.4245799 0.5501603
0000c0 f7 16 28 bf 67 68 3e bf 28 f6 2e bf bb 87 53 bf
       -0.6566004 -0.74378055 -0.68344355 -0.82628983
0000d0 ad e7 5a 3f bc 85 62 3f 66 0a 15 be f2 02 73 3f
       0.8550976 0.8848531 -0.14554748 0.9492637
0000e0 ca 0f 9a 3e 07 d9 78 bf 01 d7 6d bf c1 ba 00 bf
       0.3009017 -0.9720616 -0.92906195 -0.50284964
0000f0 85 ad 81 bf 21 11 f4 be b2 37 8f 3e 77 f3 e7 ba
       -1.0131079 -0.47669318 0.2797218 -0.001769646

weight_ih_l0 f4 [256, 64]
000000 e4 f5 9c bc 06 ac 43 3c ce 9e f2 3d f8 71 b8 3b
       -0.019160219 0.011942869 0.11846696 0.0056288205
000010 7b 25 89 3d c1 e8 d3 bc ed ca c8 bd ec 3f a5 3c
       0.06696602 -0.025867822 -0.0980433 0.020172082
000020 a8 5a 5a 3d 82 31 8c 3d d9 43 e8 bd 29 e7 aa bc
       0.053309113 0.0684538 -0.11341066 -0.020862179
000030 05 0c ee bd e8 57 b9 3b 4a 0b 20 3c d6 31 37 3d
       -0.11623386 0.005656231 0.0097683165 0.04472526
000040 f0 5e 1e bd bd 96 b8 bc b4 9b d8 3c 8d 58 00 be
       -0.03866476 -0.022532815 0.026441433 -0.1253378
000050 00 0d 6a 3d ec 1b 00 3e 14 12 bf bd d0 29 01 3e
       0.057141304 0.12510651 -0.0932962 0.12613606
000060 6f f2 bd 3c 87 04 03 3e 37 00 e9 3d 8d eb e3 bd
       0.02318689 0.12794696 0.11376994 -0.11128912
000070 09 71 c9 3d 1d f7 09 3c b0 2b 13 3d 14 70 4b bd
       0.09836013 0.008420733 0.035930336 -0.049667433
000080 59 6f c4 bd 18 79 84 3c 7d 8f 1f 3d e8 7d 89 3d
       -0.095915504 0.016171023 0.0389552 0.06713468
000090 ea 1f ce bd 32 12 ef bd d4 6f 82 3d a5 ca ee bc
       -0.10064681 -0.11673392 0.06368986 -0.029149363
0000a0 c1 05 c5 bb 96 90 e6 bc 46 d2 96 3b 8a 0a cc 3c
       -0.006012649 -0.028145116 0.0046027033 0.02490737
0000b0 8f 18 f5 bd fe 7b 4e 3d 20 43 93 3c 1f 99 7d 3d
       -0.11967575 0.050411217 0.017976344 0.061913606
0000c0 44 a5 76 bd e5 87 b1 3d 3c 45 a2 3d cf 9b 6f bd
       -0.060216203 0.08668498 0.07923362 -0.0584982
0000d0 98 58 e8 3d 1e c1 40 3c 22 4c d9 3d 24 bf df 3d
       0.11345023 0.011764793 0.10610224 0.10925129
0000e0 86 53 c3 3c 88 de 82 3c 23 25 0f 3d 09 3c ad 3d
       0.023843538 0.015975252 0.034947526 0.084587164
0000f0 ac 3e f2 bd de 2d 4e bb c3 45 fd 3d 00 22 ac bd
       -0.1182836 -0.0031460444 0.123668216 -0.084049225
000100 7a 82 87 bd a1 00 8e 3c 01 66 4a 3d ed 3e 92 3d
       -0.06616683 0.017334284 0.049413685 0.071409084
000110 09 6a 3a 3c 19 5e 0a 3d 22 77 79 bd 40 da e9 3d
       0.01137782 0.033781145 -0.06090463 0.11418581
000120 87 88 b1 bd 73 c3 9d 3d 7f c5 93 3d bf cc d6 3d
       -0.08668619 0.077032946 0.07215404 0.10488271
000130 b3 ee eb 3d a3 6d 18 bd 77 98 bf 3d 9a 18 b2 bd
       0.11520138 -0.037213933 0.09355252 -0.086960986
000140 f3 30 bb 3d e5 4f a6 bd d6 ce b6 bd ff 01 b6 bd
       0.09140196 -0.081207074 -0.089261696 -0.088870995
000150 8f 52 f0 3d 55 a6 28 3d cb 21 bb bd 30 5e b7 bd
       0.11734497 0.04117425 -0.09137305 -0.08953512
000160 f6 8d 8c 3c 20 17 ba bc 2f ec 16 3d 7b 64 98 3d
       0.017157536 -0.022716105 0.036846336 0.0744104
000170 d9 10 99 bd 1d c5 df bd 62 5d 8c 3c f7 ec a1 3d
       -0.074739166 -0.10926268 0.017134372 0.079065256
000180 4b 91 a4 3d 70 4c 20 3b 02 6b ee bc 36 b8 34 3d
       0.08035525 0.0024459623 -0.02910376 0.04412099
000190 c7 b6 ba 3d 43 cc d3 bd c1 f0 f8 bb b7 b9 b8 3d
       0.09116893 -0.10341694 -0.0075970595 0.09019797
0001a0 46 98 bc 3d f4 bf f5 3d c3 27 57 3d e9 c4 02 3e
       0.09208731 0.11999503 0.052528154 0.12770428
0001b0 5a 1a 00 be 0e 7f e4 3c 95 fc b5 3c 97 5b b9 3d
       -0.12510052 0.027892616 0.022215167 0.090506725
0001c0 7d a3 ee 3c 8d 2f 9b 3d b7 46 e9 bd f7 4d 18 bc
       0.029130692 0.07577429 -0.11390441 -0.009295932
0001d0 3a 41 51 3d c1 64 9b 3d f9 8b cf 3c 15 a2 9c 3d
       0.051087596 0.07587577 0.025335299 0.07648102
0001e0 c5 58 0e bd 30 45 76 bc 19 67 e7 3d 6b 7c b3 3d
       -0.034752626 -0.015031144 0.11298961 0.08763965
0001f0 62 0d ab 3d c6 86 e6 bd 8a ac 29 3b 85 c8 d5 bd
       0.08352162 -0.11256175 0.0025890195 -0.10438637
000200 74 79 fe 3d 2a 63 e5 3d 38 d1 a4 3d 8b 4b 87 bd
       0.12425509 0.11200555 0.08047718 -0.066062056
000210 25 0c 78 bd 8f d8 90 bd 4f 73 11 3d f1 03 bc 3d
       -0.060558457 -0.07072555 0.035510357 0.09180439
000220 f3 a0 de bc 42 a5 03 be c9 bd 88 bc 06 d4 8c 3b
       -0.027176356 -0.1285601 -0.01669206 0.004297736
000230 de c7 92 3c 02 13 a1 3d 0c e7 43 3d 34 a6 c0 bc
       0.01791757 0.078649536 0.047827765 -0.023516752
000240 08 28 9f bd 96 5e 56 bc 3e 18 8e bd cb bf e1 bd
       -0.07771307 -0.0130840745 -0.069382176 -0.1102291
000250 0f 81 a7 bd 82 d8 d4 bd 77 ed 5d 3b 0f 34 b6 bc
       -0.08178913 -0.10392858 0.0033863464 -0.02224162
000260 e1 2e 78 bd 47 8a 0a 3d 75 ee d9 3a c3 9f c3 bd
       -0.060591582 0.033823278 0.0016626852 -0.095519565
000270 2e 04 85 3d e3 46 e1 bd 9b be 11 b9 be 9d ad 3d
       0.06494938 -0.10999849 -0.00013899284 0.084773526
000280 cc 49 e8 3d 62 98 9e 3d d4 31 5b bc c1 75 1f 3d
       0.11342201 0.077439085 -0.013378579 0.03893066
000290 23 b2 9c bd f5 54 df 3b f3 da f2 3d 33 81 81 bd
       -0.076511644 0.0068155476 0.118581675 -0.06323471
0002a0 24 a1 02 be 9a 03 e8 3d f8 c7 7c 3d a3 ae c7 3d
       -0.12756783 0.11328812 0.061714143 0.09750106
0002b0 eb 00 52 bd f7 53 2a bd ed ba 34 bc 7f ec d9 bc
       -0.051270407 -0.04158398 -0.011030895 -0.026602028
0002c0 f1 2d e0 3c 63 51 20 bd 74 b4 3d bd 00 10 9f bd
       0.027365657 -0.039140116 -0.04631467 -0.07766724
0002d0 72 1c 15 bd d5 a8 c5 bd db 8f 09 bb 21 48 80 3d
       -0.03640408 -0.09651343 -0.0020990286 0.062637575
0002e0 f9 08 8f 3d 13 81 45 3c 20 9e d2 bd c6 d1 89 bb
       0.06984133 0.0120546995 -0.10284066 -0.004205915
0002f0 5a bf a0 bc b6 9a a7 3d 82 4f 04 3d 56 06 b1 3d
       -0.019622494 0.08183806 0.032302387 0.086437866
000300 dc b9 ed 3d d9 ef ed bb 3b 70 bd bd aa 91 b4 bd
       0.116077155 -0.007261258 -0.09249922 -0.08816846
000310 7e 7e da 3d a4 0e 33 bd 0d 98 49 bb 82 a6 1a 3d
       0.10668658 -0.043715134 -0.0030760795 0.03775645
000320 f4 f7 3d bc 19 be fb bd f7 18 36 bc 5a 6e 91 3c
       -0.011594761 -0.122921176 -0.0111143505 0.017752815
000330 52 43 43 bd 96 02 88 3c 98 e3 ef 3c 36 a9 68 3d
       -0.047671624 0.016602796 0.02928333 0.056801997
000340 08 cf 3d bd cf 06 d5 3d 61 ad cc 3d 86 13 91 3d
       -0.04634002 0.10401689 0.09994007 0.07083802
000350 e2 2a bb bd 7a 1e 86 bd 6c dc a0 3b 43 70 6c bd
       -0.091390386 -0.06548782 0.004909089 -0.05772425
000360 d4 6c fd 3b 3d 83 5b bd de 3b 38 bd 0e 90 dc 3b
       0.0077339206 -0.053591955 -0.04497897 0.00673104
000370 ee 6e bd bd 5f 4b 22 3d 86 2d 5c ba 2b 00 77 bd
       -0.09249674 0.03962266 -0.00083991175 -0.060302895
000380 3e 2c 60 bd 97 e0 87 bd 56 df d8 3d 35 ab 49 3c
       -0.054729693 -0.06634634 0.10589473 0.012308885
000390 e1 1e 9d bc 8d ee 2a bc 36 b2 bf bd 46 36 f7 bd
       -0.019179763 -0.0104328515 -0.09360163 -0.12070899
0003a0 85 3d d5 bd 24 70 ab bc 94 6d 52 bd ac 9b 5b 3d
       -0.104121245 -0.020927496 -0.051374033 0.053615257
0003b0 a6 d6 99 3d f9 c4 96 bd b9 9f b5 3d f0 74 e1 bc
       0.07511644 -0.07361788 0.08868355 -0.02752158
0003c0 bc cc 0c bd dc 6a e7 3d 15 1a b2 bd 3d 7f 24 3d
       -0.034374937 0.11299679 -0.08696381 0.040160406
0003d0 18 fe 36 3d 38 2b 00 3d ac f0 92 bd 36 37 cb 3d
       0.044675916 0.031291217 -0.07174811 0.0992264
0003e0 f2 02 a8 bd d6 6a 51 bd ce e3 ef 3d f7 29 a9 bc
       -0.08203687 -0.051127277 0.11713372 -0.020649893
0003f0 9c 29 70 bd 7b 28 f8 bd 48 52 ee bd 68 7a bf bd
       -0.05863343 -0.12117096 -0.11636788 -0.09349519

weight_hh_l0 f4 [256, 64]
000000 f4 e5 10 bd cc 0e 00 bd b5 bf 6e 3c 89 11 be bc
       -0.03537555 -0.03126411 0.014572074 -0.02320172
000010 58 7a d4 3d 6d c9 5f bc 3c 88 ce bd 56 54 6e ba
       0.10374898 -0.0136588635 -0.100845784 -0.00090915465
000020 08 07 e0 3d 63 52 48 bd 51 c3 46 3b 72 12 6d b9
       0.10938841 -0.048906695 0.003032882 -0.00022608953
000030 6a 1c aa bc 92 46 a8 bd f6 2c 80 bd c1 ec 45 3c
       -0.020765502 -0.08216585 -0.062585756 0.012080372
000040 28 00 5c 3d 02 91 99 bd 56 fb 49 bd 89 52 a0 bd
       0.053711087 -0.07498361 -0.04931196 -0.07828242
000050 11 1e af 3c 55 70 5d bb 20 03 be bd b1 71 94 3d
       0.021376641 -0.003378888 -0.0927794 0.072482474
000060 3a c4 5b 3d b0 16 c4 bd 96 7e 9a 3d 12 b3 9b 3d
       0.053653933 -0.0957464 0.075436756 0.07602514
000070 a9 6e f1 3d ce 5e 54 3d 8b 59 b3 bd 77 d6 57 bd
       0.11788685 0.051848225 -0.08757313 -0.052694764
000080 e5 fa 4c 3d 51 f4 25 3d a2 9a cb bb f0 3c e1 bb
       0.05004396 0.0405162 -0.006213502 -0.0068737194
000090 5a 93 82 3d 9d b1 b3 3d 8b cc 3a bd 6e 3b 65 3d
       0.06375761 0.087741114 -0.045605224 0.05596488
0000a0 56 f4 54 3d b6 79 e4 bd e4 65 4d bd 20 84 79 3d
       0.05199083 -0.11156027 -0.050146 0.06091702
0000b0 c3 3e c2 bb 47 bb b6 3d 12 3c 8b 3d 7e b0 ad 3c
       -0.005927892 0.08922439 0.06798567 0.021202322
0000c0 e4 77 37 bd 9e 97 c3 3d bf 70 0e bd 40 be 93 3b
       -0.04479207 0.09550403 -0.03477549 0.0045087636
0000d0 81 88 f2 3d 42 a2 e8 bd ad f0 b4 3d bc f9 b3 bd
       0.11842442 -0.11359073 0.08834968 -0.087878674
0000e0 45 97 d1 3c e0 bf c4 bc 48 c5 00 3e f8 f3 d1 3d
       0.025584826 -0.024017274 0.12575257 0.102516115
0000f0 50 7b a3 3d 3c 6d ee 3b 96 1d 35 bd ec 35 01 3e
       0.07982504 0.0072762053 -0.04421767 0.12618226
000100 f5 0a 2b bc a7 f4 a9 3c c7 71 68 3c 41 af c6 3d
       -0.010439624 0.020746542 0.014187283 0.09701396
000110 b6 16 99 3d e3 3a cb bb 7a 7a 5f 3b 62 8b 49 3c
       0.07475035 -0.006202088 0.0034100101 0.012301298
000120 82 57 a1 bd 31 99 06 bd 72 25 88 3d 1f 17 d3 3d
       -0.07878019 -0.03286094 0.06647767 0.103071444
000130 e7 bf c8 3d d6 7b 98 bd 70 b6 ba bd 9c f0 c0 bd
       0.098022275 -0.07445495 -0.091168284 -0.094208926
000140 4b 79 1a 3d 08 7e e0 bc 55 12 ee 3d 8f e1 8c bd
       0.03771333 -0.027403846 0.1162459 -0.068789594
000150 5f 35 eb bd 8f 02 db bd 44 53 06 be 49 13 00 3e
       -0.11484789 -0.106938474 -0.13117701 0.12507357
000160 61 dd 19 3c 19 9d f0 3d 79 c6 c7 bd 75 04 e4 3c
       0.00939116 0.11748714 -0.097546525 0.027834157
000170 26 86 c8 bc b6 eb d6 bd c0 8d 66 bc f8 af ee bd
       -0.02447803 -0.10494177 -0.014071882 -0.11654657
000180 33 8f c9 bc c5 6c 4c 3d 50 0c c1 bd b7 f4 46 bd
       -0.024604416 0.04990842 -0.094261765 -0.048573222
000190 25 7d 32 3d 64 2d cb 3d b3 69 6f 3d 33 fd f0 3d
       0.04357638 0.09920767 0.058450412 0.11767044
0001a0 92 6c b2 bd 67 d8 ce 3d 23 ce ad bd d7 1a e6 bd
       -0.087121144 0.10099869 -0.08486583 -0.11235588
0001b0 1a 7a 68 bb 2a 98 b7 bd 9f b1 0e 3d 4f 77 df bd
       -0.0035473169 -0.0896457 0.03483736 -0.10911428
0001c0 8c f7 39 bd 60 ad b8 3c 6d 1c b0 3c d3 8b 79 bd
       -0.045402095 0.02254361 0.02149793 -0.060924362
0001d0 2c 6c 4c bd df d2 c4 3d 39 0f 71 bd 89 7a ad 3d
       -0.04990785 0.09610533 -0.058852408 0.08470637
0001e0 83 48 96 bd 03 a5 13 3a 67 0b e4 bd 93 0e 29 3d
       -0.07338049 0.00056321936 -0.11134987 0.041273665
0001f0 ca 7b bc 3a 6a 43 e3 3c 16 06 8f 3d 4f eb e5 bd
       0.0014380154 0.027742106 0.06983583 -0.11226522
000200 c8 18 b5 3c d1 3b e8 3c 23 13 92 3d d7 ef 54 3d
       0.022106543 0.028348835 0.07132556 0.05198654
000210 d7 6c bc bb be 88 70 3b 2d d6 bf bd e2 8d 71 bd
       -0.0057502794 0.0036702598 -0.09367023 -0.0589732
000220 9d cb 8c bd f2 77 d1 3d f1 9f 99 3b f2 e8 8f 3d
       -0.06874774 0.10227956 0.004688256 0.07026853
000230 63 25 0b be d3 1a 7f bd 89 c6 cc 3d 18 eb dd bc
       -0.1358848 -0.06228144 0.09998805 -0.02708964
000240 24 52 7b ba 16 cb 97 bd e8 f4 b4 3d 70 50 c0 3d
       -0.000958713 -0.074117824 0.08835775 0.09390342
000250 08 f7 65 3b 9a 78 55 3d 1f 91 03 be 31 1d 65 3d
       0.003508987 0.052116968 -0.12848328 0.055936042
000260 54 97 73 bd a3 57 3a bd e2 07 9b bd 68 c9 68 3d
       -0.05947049 -0.045493733 -0.07569863 0.0568327
000270 2c 42 9b bc aa 54 be 3c a3 b6 c8 bd 79 dd ff bd
       -0.018952452 0.02323373 -0.0980046 -0.124934144
000280 8f bf a4 bd 9a 78 54 3d 45 b2 5c 3d 48 f8 ab bd
       -0.080443494 0.051872827 0.05388095 -0.08396965
000290 8e ce 06 be 4d 14 aa bd 26 4b 6c 3d 5e 3b 98 bd
       -0.13164732 -0.08304653 0.057688855 -0.074331984
0002a0 42 52 2c bd b7 88 de 3d c8 09 71 bd 2c 40 17 be
       -0.042070635 0.1086592 -0.05884722 -0.14770573
0002b0 0a 42 e5 3d e5 b4 11 bd 28 dc 0b be fb fd e3 3d
       0.111942366 -0.035572905 -0.13658202 0.11132427
0002c0 20 18 3a 3d 90 13 4c bc 94 9c 1f bd 63 2f 15 bd
       0.045433164 -0.012455836 -0.038967684 -0.036422145
0002d0 66 56 e8 3d 32 20 e7 3d 36 b5 ce 3d b7 2a 29 3d
       0.11344604 0.11285438 0.10093157 0.0413005
0002e0 d4 7d 47 bc 17 61 cb bd 1d 6c be bc b9 44 41 bd
       -0.012175996 -0.09930628 -0.023244912 -0.04718468
0002f0 55 8a 53 3d df c7 91 bd c5 11 27 bd fa f6 58 3d
       0.051645596 -0.071182005 -0.04078843 0.05296991
000300 17 53 7f 3d 6c 70 91 3d a9 8c 89 3d b8 9c f2 3d
       0.0623351 0.07101521 0.06716282 0.11846298
000310 5f ba 44 3d c3 e5 61 3c d9 8c 2f 3d 84 a9 2c 3d
       0.0480293 0.01378769 0.042858932 0.04215385
000320 7a e1 72 bd 3a 6a 1c 3d 47 af f0 bd 07 f5 43 bc
       -0.059297062 0.038187243 -0.117521815 -0.011960275
000330 93 5b a9 bd 26 02 ec 3d a6 c4 e3 bd 2d f1 87 bd
       -0.082694195 0.11523847 -0.11121492 -0.066377975
000340 6e c3 29 3c 27 9c 91 bb d7 0d b8 bc 1d 03 b1 3d
       0.0103615355 -0.0044436636 -0.022467537 0.08643172
000350 cb e5 f6 bd 94 d5 f3 3c d0 87 a3 3c 3a 33 ad bd
       -0.12055548 0.029764928 0.019962221 -0.08457036
000360 7b c3 93 3c 0f ff be 3c 6d 5b ba 3d 35 ec a2 3d
       0.018037548 0.02331498 0.09099469 0.07955209
000370 78 d1 a3 3d 14 69 69 3d 55 c7 e1 bd 5d 1c 81 3d
       0.07998937 0.056984976 -0.11024348 0.06304238
000380 16 b4 f0 3d ca 57 08 3c fe 93 25 3d c4 1b e0 bd
       0.11753099 0.008321712 0.04042434 -0.10942796
000390 a5 3f 35 bd b8 6a a6 bd ca 4b e4 bd 11 31 03 be
       -0.04425015 -0.08125824 -0.11147268 -0.12811686
0003a0 4f c5 92 bd 97 eb 40 3d eb 99 03 3e 1b e7 cf 3d
       -0.0716654 0.047099676 0.12851684 0.10151502
0003b0 8b 1c e7 3d dd 0b f5 bd 92 96 a9 bc b6 96 03 bd
       0.11284741 -0.11965153 -0.02070168 -0.03212615
0003c0 9f 6c 86 3d c8 88 ea bd 2b b1 02 be 7c ca d4 bb
       0.065636866 -0.1145187 -0.12762897 -0.0064938646
0003d0 94 3d c1 bd d4 6a 94 bd 53 34 90 bd 96 12 71 3d
       -0.09435573 -0.07246938 -0.0704123 0.058855616
0003e0 b5 e8 63 3d d3 c9 d7 bc d5 c0 a9 bc c6 b6 88 3c
       0.05564185 -0.026341354 -0.020721832 0.016688716
0003f0 43 c5 d0 3c 7c fc a6 bd dc e8 4b 3d 7e 96 48 bd
       0.025484687 -0.08153626 0.04978262 -0.048971646

bias_ih_l0 f4 [256]
000000 e0 6e a2 bd 35 00 bd 3d 6d ce b0 3d 09 bd 87 3c
       -0.07931304 0.09228555 0.086331226 0.016569631
000010 35 48 21 3d 05 38 81 3d 4c de a4 bd ec 02 f9 3b
       0.039375503 0.06309513 -0.08050212 0.0075992253
000020 0a 25 86 3d 7c 81 ea 3c e7 99 4c 3d 2d 3f d3 3d
       0.065500334 0.028626196 0.04995146 0.10314784
000030 f0 3a 83 3d ca 97 d7 bd 25 f5 85 bd 24 51 b3 3d
       0.06407726 -0.10526998 -0.06540898 0.08755711
000040 09 1a b3 bd bf b5 ab bd c6 27 cd bd 10 b5 c7 3d
       -0.087452 -0.08384275 -0.10017352 0.09751332
000050 45 e1 83 bd 3b c1 ed bd 63 1b fa bd 52 d8 3b 3d
       -0.06439451 -0.116091214 -0.12212255 0.045860596
000060 46 e3 b1 3d 07 ab 56 3d 0e d0 b5 bc 65 c5 85 bc
       0.08685927 0.052409198 -0.022193935 -0.016329477
000070 da 66 83 3d 13 1f b5 3d 4c de 10 3d 81 41 5f 3c
       0.06416102 0.088438176 0.03536825 0.013626457
000080 63 f2 81 bd bf ea 37 3d 9d fb 98 bd eb 04 31 bc
       -0.0634506 0.044901606 -0.074698664 -0.010804395
000090 28 07 f3 3c 22 3d 8a 3c b7 21 cc bd 72 9f a0 3d
       0.029666498 0.016874854 -0.09967368 0.07842912
0000a0 0b c0 1e 3c 3c 2f be 3c b2 99 fa 3c 89 64 93 bc
       0.009689341 0.023215882 0.030590866 -0.017992275
0000b0 18 de e8 3d 9b d5 88 3d a6 c2 56 bd e4 77 44 3d
       0.11370486 0.06681367 -0.052431725 0.0479659
0000c0 39 fb 90 3d d4 2f 94 bd e1 e0 ac 3d 4c 59 5d bd
       0.07079167 -0.07235685 0.0844133 -0.05404024
0000d0 0f d3 8e bd 25 29 f6 bd 96 0b 93 bd 78 9f c5 bd
       -0.0697385 -0.120195664 -0.07179944 -0.09649557
0000e0 07 13 e2 3d 97 2d ae bd f4 ae 9e 3d 29 65 c0 bd
       0.110387854 -0.08504789 0.077482134 -0.09394295
0000f0 41 b6 5c 3d 9f fb d0 bc 86 32 6d 3d e2 a5 e7 3d
       0.05388475 -0.025510607 0.05790951 0.113109365
000100 35 dd 4d 3d d9 61 de 3d 17 12 ba bd 8b 4e 46 3d
       0.050259788 0.10858507 -0.090854816 0.04841475
000110 4b fe c5 bd 98 e4 12 3d 43 95 af 3c 2c 71 ee bc
       -0.09667643 0.035862535 0.021433478 -0.029106699
000120 9b 5e d9 3d dd 9a ae 3c 0b 3e d6 3d 27 1b 6f 3d
       0.10613748 0.021314079 0.104610525 0.058375504
000130 a2 f4 69 bd 1c ff 1e 3d 18 e3 e0 bd 78 df a2 bd
       -0.057118066 0.03881751 -0.10980815 -0.079527795
000140 08 62 50 bd b8 3b d1 3d 22 0f 94 bd 80 d0 22 bd
       -0.05087474 0.102164686 -0.07229449 -0.039749622
000150 d1 95 a4 bd 8f 03 ee 3d 13 4c 7b bd 43 7d f2 bd
       -0.08036388 0.116217725 -0.061351847 -0.11840298
000160 7d 2b 0b 3c ed 12 bc bd 6a 3c a0 bd 18 16 c9 3c
       0.008494255 -0.09183297 -0.07824023 0.024546668
000170 98 c0 b5 3b 5a 95 06 be b4 64 c7 3d 24 69 03 3e
       0.0055466406 -0.1314291 0.097360045 0.12833077
000180 d2 54 ba bc 8e 90 4b bc be 3f 85 bc 1c 3b ec bd
       -0.022745524 -0.012424601 -0.016265746 -0.11534712
000190 2e ac 2a 3d 13 30 47 3d e0 e4 ee 3d 07 d0 41 3d
       0.04166811 0.04862983 0.11664748 0.04731753
0001a0 50 24 a3 bd 1c 51 aa bd a9 a0 07 3e 65 67 97 bd
       -0.079659104 -0.08316252 0.1324488 -0.07392768
0001b0 71 7f 22 bd 61 66 fd bc 36 ec 40 bd 7c de 08 3e
       -0.03967232 -0.030932607 -0.04710027 0.13366121
0001c0 28 ae 0d be f5 46 f2 3d 32 84 f6 3d 15 5c 55 3d
       -0.13835967 0.1182994 0.12036933 0.05208977
0001d0 c8 85 b2 bd 0d 7e f6 3d e1 9a d7 bd e2 13 b2 3d
       -0.08716923 0.12035761 -0.10527588 0.086951986
0001e0 97 ba 40 bd 4b 32 d6 3d 22 e4 3c bd 4c d3 a8 3c
       -0.047052946 0.10458811 -0.046116002 0.020608567
0001f0 d4 e7 c1 3c 17 4e 9c bd 92 40 bd bd cb cd f5 3b
       0.023670115 -0.07632082 -0.092408314 0.007501339
000200 61 80 88 3d e5 94 1a bd dd c0 b5 bb 03 e6 66 3d
       0.06665111 -0.037739653 -0.0055466727 0.0563717
000210 c9 0b 35 bd f4 be 1a 3d 04 04 43 3d f9 06 e8 3d
       -0.044200692 0.037779763 0.04761125 0.11329455
000220 88 fe c1 3a 84 b9 a3 bd 0f 38 d9 3d 8e c0 e2 3d
       0.0014800588 -0.07994369 0.106063955 0.11071883
000230 98 53 3f bc be d1 95 3d 02 7e cb bd 0a db 41 3d
       -0.011677645 0.07315396 -0.099361435 0.047328033
000240 20 9d bc 3c ed 5b 8b bd 53 de 9c bd 1d 15 23 3a
       0.023024142 -0.06804643 -0.076595925 0.00062211027
000250 fe fe 76 bb 8f 1a a6 3d 8a 3f 3b bd a7 f6 bd bd
       -0.0037688608 0.081105344 -0.045714892 -0.09275561
000260 52 7b c2 3d e7 70 88 bc 0e cf d8 bc 20 60 c4 bc
       0.09496178 -0.016655399 -0.026465919 -0.023971617
000270 fc f1 a4 3d 4e f0 c3 3b d0 f7 7a 3d 92 6e f5 3d
       0.08053967 0.0059795743 0.06127149 0.1198398
000280 bc 7e 06 bc 85 f4 2f bc a1 54 2d 3d ca 3b b8 bd
       -0.008208927 -0.01073945 0.042317037 -0.08995779
000290 b0 41 de bc 73 25 7c 3d d5 f7 15 3c 5a 95 50 3c
       -0.027130932 0.06155915 0.009153326 0.012730921
0002a0 5f 3e 87 bd 48 70 12 bc 9b 4a e1 3a f5 48 05 3e
       -0.06603693 -0.008937903 0.0017188372 0.13016112
0002b0 41 31 d9 3d f6 ef 07 bd 1c d6 aa bd 55 90 7f bc
       0.106050976 -0.03318783 -0.08341619 -0.015598376
0002c0 d9 fa da bd aa da 89 bc d4 62 1c 3d 5e 5f 42 bd
       -0.10692377 -0.0168279 0.038180187 -0.04745423
0002d0 71 e3 da bd 51 3d 09 3d 00 49 dc bc e0 c9 c8 3d
       -0.10687912 0.03350574 -0.026890278 0.098041296
0002e0 78 fb 2c bd 08 ab e4 3d 50 e2 46 bd d6 fd 1d 3d
       -0.042232007 0.11165434 -0.048555672 0.038572155
0002f0 d6 dc a2 3d 6d dc 8b 3d 61 2d 21 3b 72 3f d5 bd
       0.07952277 0.06829152 0.0024593698 -0.10412492
000300 ba 00 94 bd ea 7f 98 3d 67 97 9d bd 86 94 66 bd
       -0.07226701 0.07446273 -0.07694893 -0.056293987
000310 70 ca ed 3d 33 cb d2 3d 81 08 7f 3d c4 b5 b1 3b
       0.116108775 0.102926634 0.06226397 0.0054232795
000320 c3 a8 f0 3b 47 0d c1 3d 6e 55 88 bd f3 ad 05 3e
       0.0073443367 0.094263606 -0.066569194 0.13054638
000330 d2 72 df 3d 57 5f ee bd 47 98 fc 3d 5a 1c 0f bd
       0.10910572 -0.116392784 0.12333732 -0.034939148
000340 4d cd 70 3c d3 9c e5 3d 51 3d 8a 3d 60 eb 6c 3c
       0.014697385 0.112115525 0.067499764 0.014460415
000350 93 43 9f 3d 42 43 78 3c ea 53 b6 3c e4 3a db bd
       0.07776561 0.015152754 0.02225681 -0.10704592
000360 fe ec ed bd 68 28 53 bb 7b e6 cd 3d c9 b3 2c 3d
       -0.11617468 -0.003222013 0.10053726 0.042163644
000370 e4 ca a3 bd cb 45 4d bd 30 1a b7 3b d4 fb 84 3d
       -0.07997683 -0.050115388 0.0055878386 0.06493345
000380 d8 03 0f bd 11 5d 50 bd 0c 3c 9e 3d 65 b7 7f bd
       -0.034915775 -0.050870005 0.07726297 -0.062430758
000390 3d 2a 38 bd 5a b9 0e 3d 71 04 c0 3d 89 0a ff bd
       -0.044962157 0.034844734 0.09375847 -0.12453181
0003a0 47 d7 19 3c 59 22 60 3c fe 9c d4 3d 89 2f 79 bd
       0.009389705 0.013680064 0.103815064 -0.06083635
0003b0 71 ab 21 bc e2 38 e4 bd c6 50 c4 3d 33 69 cb 3d
       -0.009867535 -0.11143662 0.09585719 0.099321745
0003c0 1e fb e5 3d f4 36 51 bd 3e d9 ce bd 5d 22 ac bc
       0.112295374 -0.051077798 -0.101000294 -0.02101248
0003d0 99 3b 47 3d 4c e6 6b 3c d4 93 d3 3d f5 98 73 3d
       0.04864082 0.014398169 0.1033093 0.059472043
0003e0 ed ee c5 3d fc 7f 00 be 79 70 bc bc e5 35 c9 3b
       0.09664712 -0.12548822 -0.02300285 0.006140458
0003f0 20 ae e0 3d 1d a0 9e bb b0 50 a3 bc 55 39 e1 3d
       0.10970712 -0.0048408643 -0.019935936 0.10997263

bias_hh_l0 f4 [256]
000000 cc 2f 8d 3d 50 4b 23 bc 3b 97 f5 bd 08 bf 8a 3c
       0.06893882 -0.009966686 -0.119917355 0.016936794
000010 68 a9 a3 3d 8b 50 fb bc 0c 8b da bd 13 18 ca bd
       0.07991296 -0.030678054 -0.10671052 -0.09867873
000020 bd 25 f7 3c 18 e8 4e bd a1 8f 9f 3d a6 b1 1c 3c
       0.030169362 -0.05051431 0.07791067 0.009563839
000030 f8 a6 3a 3d 88 d8 a5 3d 01 96 8b 3d 26 31 95 bd
       0.04556939 0.08097941 0.0681572 -0.07284765
000040 1a 2c ae bd 43 02 b1 3d 8f c3 24 bd 42 03 20 bd
       -0.085045055 0.086430095 -0.04022556 -0.039065607
000050 ae af b8 bd 1a 2e bb bd d6 5f a6 3d 8f 20 c5 bd
       -0.09017883 -0.091396526 0.08123748 -0.09625351
000060 c6 e5 b7 ba 1a fa 14 bd 9d 04 3f bb e1 12 ee bb
       -0.001403027 -0.036371328 -0.0029147037 -0.007265434
000070 90 dc 8b bd af 48 cd bc eb e3 ba 3a 6a 28 d5 bd
       -0.06829178 -0.025059072 0.0014258599 -0.10408099
000080 d9 8a a0 3c 9b a0 e2 bc b5 e1 1d bd e5 44 89 bc
       0.019597458 -0.027664473 -0.03854533 -0.016756484
000090 21 1e b0 3d 38 83 d5 3d bc d1 e8 3d bc c1 90 bd
       0.08599497 0.104254186 0.11368129 -0.07068202
0000a0 34 df 91 3d 04 fb 6c bd b7 56 a7 3d bb 42 22 3d
       0.07122651 -0.057856575 0.081708364 0.03961442
0000b0 c3 88 e6 bc 33 6f 43 bd ba f2 a7 bd e6 1a 87 3c
       -0.028141385 -0.04771347 -0.08200593 0.016492318
0000c0 a2 e2 e4 3d ce 0f 40 bd 7b 69 d1 bd 7b 31 a7 3c
       0.11176039 -0.046890073 -0.10225197 0.020409336
0000d0 20 c8 79 bd 45 50 a7 3c 9b 34 74 3d a5 96 97 3d
       -0.06098187 0.020424018 0.05962048 0.0740178
0000e0 2e 45 a9 3d 49 e5 8b 3d a2 bb 12 bd 3f b9 5c bd
       0.08265148 0.06830842 -0.03582347 -0.053887602
0000f0 35 7d 36 3a 1a ed ad bd 0a 32 77 bc a0 dc 20 bc
       0.00069614063 -0.08492489 -0.015087614 -0.009818226
000100 9d e6 d7 3c e1 7e e0 bd 26 f4 66 3d 9d 61 0c bd
       0.026355082 -0.109617 0.05638518 -0.03427278
000110 78 26 b0 bd a6 63 b2 3d 5b 49 51 3c 59 3f 2a bd
       -0.08601087 0.08710413 0.012773837 -0.04156432
000120 11 1a 9d 3d b4 70 91 3c c7 0a a1 bd 4f 8a b4 3d
       0.076709874 0.017753936 -0.07863384 0.08815443
000130 a0 7a 0e 3d 3d f5 50 bd 63 b6 09 3d b4 e3 bf bd
       0.034784913 -0.051015127 0.033621203 -0.09369603
000140 70 0f 07 be 51 a2 a5 3d 1f ef c6 3c 5d b6 cb bc
       -0.13189483 0.080876 0.024283944 -0.024867231
000150 61 35 97 bd cd 39 c7 bd c7 2a 6b bc 2b 85 97 3d
       -0.07383228 -0.097278215 -0.014353461 0.07398447
000160 77 e0 38 bd d2 f1 11 bd 6c 71 a5 bd 18 f1 b5 bd
       -0.04513594 -0.03563101 -0.08078274 -0.088838756
000170 13 7a c8 3d 77 2c df 3c dd db 3c bd 34 38 9c bd
       0.09788909 0.027242882 -0.046108115 -0.076279074
000180 7d 02 69 bd fd 9c ae bd 2f 63 e9 3d f8 e6 ad 3c
       -0.05688714 -0.08526037 0.11395871 0.021228299
000190 52 34 4a bd 6c 5a e9 bd 31 08 80 bd f2 54 d3 bd
       -0.049366303 -0.113942 -0.062515624 -0.103189364
0001a0 f8 e7 90 bd d2 ef c3 bd ae 6d 3b bd e0 51 ac bc
       -0.070754945 -0.095672265 -0.045758896 -0.021035135
0001b0 35 33 43 3c c1 af 83 bd 22 6a 7e 3c dc 10 c3 bb
       0.011914064 -0.06430007 0.015528234 -0.0059529375
0001c0 78 60 5b bc 0c 92 a6 bd 61 83 65 3c d4 47 ff 3d
       -0.013389699 -0.08133325 0.014008374 0.12464872
0001d0 38 50 9d 3d 72 b9 a2 bb 58 7a dc bc fc 1a fd 3d
       0.07681316 -0.0049659545 -0.026913807 0.123586625
0001e0 7a 2f cc bd f4 87 3f bc 0b fe 74 bd 45 be c9 3c
       -0.09969993 -0.011690129 -0.059812587 0.02462686
0001f0 8a b0 97 3b 82 94 5c bd 68 9a 31 bd 50 e0 9d 3b
       0.0046291994 -0.053852566 -0.043360144 0.004818
000200 f4 8d 0a 3d 43 18 17 bd 8c c6 ca 3d b1 4d f4 bd
       0.033826783 -0.036888372 0.09901151 -0.11928881
000210 7e ab 7f 3d 3d e8 cd 3b ed 21 b3 3d 02 91 a8 bd
       0.062419407 0.0062837885 0.08746705 -0.08230783
000220 c6 ff 6b 3d 22 c6 99 bc ca 69 e0 3d a2 cc bf 3d
       0.05761697 -0.018771235 0.10957678 0.093652025
000230 c7 63 01 3e 52 a2 a0 3c 5a 5d 6b bc b4 6e ff bc
       0.12635718 0.01960865 -0.014365518 -0.031180717
000240 82 f5 a4 bd 39 41 90 3d 9f a8 d0 3d 49 f2 e5 bd
       -0.080546394 0.0704369 0.10188412 -0.11227853
000250 8e 2e 96 bc 24 82 2c 3c 41 9a b0 3d 68 9b e8 3d
       -0.018332746 0.010529075 0.086231716 0.113577664
000260 44 78 6a bd 53 d9 77 bd 53 00 a2 bd 9a 1e 3e 3d
       -0.0572436 -0.06050999 -0.07910218 0.046415903
000270 30 2c 85 3d 06 6d a4 bd 64 cb c1 3c 7e 50 b9 bd
       0.06502569 -0.08028607 0.023656555 -0.09048556
000280 f0 42 04 bd a9 d9 93 3d 4a a5 02 3d 28 a3 d6 3d
       -0.0322904 0.0721925 0.031895913 0.10480338
000290 e8 93 79 bd 4e 07 3e 3d 24 8f f2 3c f5 b4 76 bd
       -0.06093207 0.046393685 0.02960927 -0.060231168
0002a0 b2 46 c3 3d 31 26 9d bd c0 f0 c7 bd 7c 97 82 3d
       0.095349684 -0.076733 -0.09762716 0.063765496
0002b0 71 bf 63 bd a3 6d a3 bd 6b 3e e1 3d 75 98 c1 bb
       -0.055602495 -0.07979896 0.109982334 -0.005908067
0002c0 9a 5d cf bc 97 05 e1 bd 59 98 50 ba 28 70 10 bd
       -0.025313187 -0.10987394 -0.0007957272 -0.03526321
0002d0 27 a8 f2 bd 59 31 6b 3a 2c 3c e4 bd e0 01 97 bd
       -0.11848479 0.0008971892 -0.111442894 -0.073734045
0002e0 52 d6 b0 3b 3f f8 e7 3d 00 80 d9 bc 64 1e bc 3d
       0.0053966427 0.11326646 -0.026550293 0.09185484
0002f0 89 71 48 bd ec a5 d7 3d 1e f6 26 bd d9 cb e7 3d
       -0.0489364 0.10529694 -0.04076206 0.11318178
000300 7b d0 9f 3c 0b c7 05 bd 6d 68 85 bd 23 0d 75 3c
       0.01950859 -0.032660525 -0.06514058 0.014956745
000310 79 e2 04 be f4 e9 b2 3d cd d5 ed bd 63 68 81 bd
       -0.12977017 0.08736029 -0.11613045 -0.06318738
000320 43 2e 28 bd 63 39 45 bc 53 58 95 bc c4 f4 29 bd
       -0.041059744 -0.012037608 -0.018230593 -0.041493192
000330 f1 a0 f7 3d e5 b1 c1 bd 03 66 1e bd 61 7c ba 3b
       0.12091244 -0.09457759 -0.038671505 0.0056910967
000340 c2 b5 c8 3d 70 c6 69 bd 13 9c 7d bc c0 27 cf 3d
       0.098002926 -0.05707401 -0.0154791055 0.101150036
000350 27 a2 cb bd ae 5a ed 3d 4c b8 b1 bd f2 ec 91 bd
       -0.099430375 0.115895614 -0.0867773 -0.07125272
000360 18 8c 87 bd cf 09 8e 3d 19 53 f5 3c a9 95 af bc
       -0.06618518 0.069354646 0.02994685 -0.021433668
000370 62 36 7a 3d 30 22 e7 3d 5a 59 38 bd 24 ca 05 3c
       0.06108702 0.112858176 -0.045007087 0.00816587
000380 86 0d 72 3c ba eb 26 3c 86 b7 7a bd 1e 84 74 bd
       0.014773732 0.0101880375 -0.061210178 -0.05969631
000390 ef 65 ef 3b 3f d0 c1 bd 3f b0 27 3d 73 94 2a 3d
       0.0073058526 -0.09463548 0.040939566 0.04164548
0003a0 aa b4 e9 bd 42 19 ae 3d 42 4f eb 3d b3 db 08 bd
       -0.11411412 0.08500911 0.114897266 -0.033412647
0003b0 56 a8 f0 3d b2 8b bf 3d eb 64 ac 3d ed 76 21 3d
       0.117508575 0.09352817 0.08417686 0.039420057
0003c0 c8 b1 6e bd 9b 48 1a bd 57 d1 95 bd df 58 be bd
       -0.058275014 -0.0376669 -0.07315319 -0.092942946
0003d0 9a 2a 13 3d c6 0f 74 3d 39 90 5b 3c 60 50 52 bd
       0.0359293 0.059585355 0.013401085 -0.051346183
0003e0 71 6c 33 bd e3 b0 e9 3b 27 16 2e bd a5 00 83 bd
       -0.04380459 0.0071316822 -0.042501595 -0.06396607
0003f0 2c f1 80 3d 83 46 5d bd be 95 ca bd b8 28 ea bc
       0.06296 -0.054022323 -0.09891842 -0.02858387

weight f4 [64]
000000 67 f9 80 3f 56 ad 81 3f 14 0d 7e 3f 3c e6 7f 3f
       1.0076112 1.0131023 0.99238706 0.99960685
000010 b1 37 82 3f c3 7b 82 3f fb f6 81 3f ce 31 7d 3f
       1.0173246 1.0194019 1.0153497 0.9890412
000020 79 ae 80 3f 08 2c 81 3f ea e3 7e 3f c6 b4 81 3f
       1.0053245 1.0091562 0.9956652 1.0133293
000030 81 82 81 3f 73 da 81 3f a7 02 82 3f b2 00 80 3f
       1.0117952 1.014479 1.015706 1.0000212
000040 4f c4 7d 3f f0 95 80 3f 04 8b 82 3f 52 00 82 3f
       0.9912767 1.0045757 1.0198674 1.0156348
000050 1a e3 7b 3f 52 cf 7e 3f 04 78 7e 3f cd ee 82 3f
       0.98393404 0.99535096 0.9940188 1.0229126
000060 c5 c6 80 3f 0e 17 81 3f 4b 1a 80 3f 89 b8 81 3f
       1.006066 1.0085161 1.0008024 1.0134441
000070 cf 9e 7e 3f 15 1b 81 3f 42 a2 80 3f 61 ac 7f 3f
       0.9946107 1.008639 1.0049517 0.99872404
000080 71 51 7e 3f 47 0f 7b 3f dd f8 80 3f 81 f0 80 3f
       0.9934302 0.98070186 1.0075947 1.0073396
000090 dc 70 82 3f 69 df 81 3f 9b 4a 7d 3f 7a b9 7d 3f
       1.0190692 1.0146304 0.98941964 0.9911114
0000a0 b1 9f 80 3f f5 b1 81 3f 8a ca 7b 3f 6b 32 83 3f
       1.0048734 1.0132433 0.98355925 1.0249761
0000b0 5c 0f 82 3f f7 ec 80 3f 91 c9 7e 3f 76 a7 82 3f
       1.0160937 1.0072316 0.99526316 1.0207355
0000c0 45 af 80 3f 5d d1 7e 3f 50 81 80 3f dd c3 80 3f
       1.0053488 0.99538213 1.0039463 1.0059773
0000d0 b7 de 80 3f 97 3e 82 3f fa a2 81 3f d2 c5 81 3f
       1.0067967 1.0175351 1.0127861 1.0138495
0000e0 16 22 82 3f af 92 80 3f ac 0e 82 3f b2 13 7e 3f
       1.0166652 1.0044764 1.0160728 0.992488
0000f0 54 db 80 3f 6a 4a 81 3f 1f 6e 81 3f 30 c8 81 3f
       1.0066934 1.0100834 1.0111731 1.0139217

bias f4 [64]
000000 39 3b 0a bc d4 2c 8a bc 5e eb 30 bb f0 69 54 bc
       -0.008436971 -0.016867079 -0.0026995759 -0.012964711
000010 c4 99 b2 bc f2 ca a8 bc b8 56 19 3c b1 8f bd bb
       -0.021801837 -0.020604584 0.009359054 -0.0057849516
000020 c2 36 ce 3c 7f cd 23 3c c0 2e 74 bb 2f 0e 97 3c
       0.025172595 0.009997725 -0.003725931 0.01843938
000030 3f ff 9f bc 57 78 88 bc 89 5a 2e bc 7d 1e 14 3b
       -0.01953089 -0.016658945 -0.010641702 0.002260118
000040 38 d8 28 bb 9a 9b 52 3c 4a 4e 12 3d fa e9 9b 3c
       -0.0025763642 0.012854481 0.035719194 0.019032467
000050 f5 52 1d 3c ec 94 24 3c e5 2c 3d 3c 12 9d 5b bc
       0.009602298 0.010045271 0.011546348 -0.013404148
000060 a4 82 ef ba bc 6b d0 bb 4a 43 42 bc f6 6e 0a 3c
       -0.0018273187 -0.006360499 -0.011856863 0.008449307
000070 57 ad 44 3b 76 41 71 bc 40 8f 00 bc 11 cb cb 3b
       0.0030010545 -0.01472508 -0.007846653 0.0062192758
000080 34 82 94 3b f1 ca 41 bc ac 55 ac bb 11 0d 5d bc
       0.004532123 -0.01182817 -0.0052592363 -0.013491885
000090 12 0c 20 bc 67 47 32 bc 1b cc c8 bb ff 39 cd bb
       -0.009768503 -0.010881281 -0.006127847 -0.006263017
0000a0 6f 28 00 bb 0f e0 ce bb 65 13 53 bb 14 20 79 bc
       -0.001955535 -0.006313331 -0.0032207605 -0.015205402
0000b0 96 ff de 3b 9b db 41 bb 2d 8c 13 3b 10 9a da bc
       0.0068053706 -0.0029580358 0.0022513971 -0.02668479
0000c0 d5 3d 0c bc 50 06 03 3c 01 ab 9d 3b 00 5b 5c bc
       -0.008559664 0.0079971105 0.004811645 -0.0134494305
0000d0 3a 0f f7 bb 20 73 98 3c 0f 79 d0 3c 8a 09 7a 3c
       -0.007539657 0.018609583 0.02544835 0.015261063
0000e0 87 a3 da bc d9 c2 09 3c 18 52 cd 3c 6d 4d ee bb
       -0.026689304 0.008408272 0.02506356 -0.0072724135
0000f0 21 21 4b 3c 87 5b 12 3b fa 2f 8d bc 8d 76 3c bc
       0.012398035 0.0022332387 -0.017234791 -0.011502874

running_mean f4 [64]
000000 99 e9 aa c3 39 6f 86 c3 75 90 14 c3 e8 c4 9d c3
       -341.82498 -268.86893 -148.56429 -315.53833
000010 0a b0 97 c1 fc fb 95 c3 b7 2e 3e 43 23 84 1e 43
       -18.960957 -299.96863 190.18248 158.51616
000020 dc 7f 82 42 db 87 85 43 24 e5 0d c2 d8 97 4b 43
       65.249725 267.06137 -35.47377 203.59314
000030 ae 3c 67 c3 8e 87 59 c2 02 a7 96 c3 fb 26 df c1
       -231.23703 -54.382378 -301.30475 -27.894033
000040 8d 1b 64 c3 18 3c 9b 43 90 28 61 43 34 62 7e 43
       -228.10762 310.46948 225.15845 254.3836
000050 a7 1b ba 42 6f fb 3e c3 40 5c 96 43 bb 28 aa c3
       93.05401 -190.98216 300.7207 -340.3182
000060 d5 77 5d c3 20 ec 5f c3 db c9 07 c3 18 ab 83 42
       -221.4681 -223.92236 -135.7885 65.83417
000070 17 fe 7c c3 80 d5 80 c3 4f d4 27 c3 e6 de 48 43
       -252.99254 -257.66797 -167.82933 200.8707
000080 7e 6d 6f c3 ea 7e 9d c3 0f 4e 94 c3 12 47 22 c3
       -239.4277 -314.99152 -296.60983 -162.27762
000090 c8 ef a5 c2 a1 14 a5 c3 b6 f3 23 c3 be ec 2e 41
       -82.96832 -330.16116 -163.952 10.932798
0000a0 83 ca 72 42 d3 35 45 c2 1c 71 03 c2 3c 79 5e c3
       60.697765 -49.302563 -32.86046 -222.47357
0000b0 a1 3a 31 43 ba 76 a3 c2 a3 0d 6b c3 2c 35 8c c2
       177.22902 -81.73189 -235.05327 -70.10385
0000c0 e4 4f 4a c2 45 4b 9f 43 76 4d 2a 43 5c 51 10 c3
       -50.57802 318.58804 170.30258 -144.31781
0000d0 28 cd 27 c2 d7 db 95 43 bc 3b 58 43 44 3f a3 42
       -41.950348 299.7175 216.23334 81.623566
0000e0 19 4f e7 c2 e3 42 8e 43 31 d9 0b 43 b3 c5 10 c3
       -115.65449 284.52255 139.8484 -144.77226
0000f0 98 b3 6a 43 65 27 89 41 b5 bd 77 c3 41 58 1b c3
       234.70154 17.144236 -247.74104 -155.34474

running_var f4 [64]
000000 f4 5c 88 47 4b 96 28 47 aa 80 4e 46 13 5b 68 47
       69817.91 43158.293 13216.166 59483.074
000010 fd 28 5d 43 9b bd 52 47 8d 04 a9 46 ce e8 69 46
       221.16011 53949.605 21634.275 14970.201
000020 a0 5d 20 45 30 cf 26 47 25 6f 3f 44 72 93 c1 46
       2565.8516 42703.188 765.73663 24777.723
000030 59 43 fa 46 c5 c6 e0 44 82 7b 54 47 32 4e ee 43
       32033.674 1798.2115 54395.508 476.6109
000040 0b 8c f2 46 b2 03 62 47 cb 10 ee 46 76 4f 17 47
       31046.021 57859.695 30472.396 38735.46
000050 24 9b a0 45 a8 e0 a9 46 99 3b 53 47 63 1d 87 47
       5139.3926 21744.328 54075.598 69178.77
000060 cd cb e4 46 4e 3c ea 46 58 ff 2b 46 b1 7e 21 45
       29285.9 29982.152 11007.836 2583.9182
000070 b7 39 15 47 7b d8 1b 47 03 d9 83 46 b8 69 bc 46
       38201.715 39896.48 16876.506 24116.86
000080 76 b6 05 47 2c 69 68 47 56 9c 4d 47 ac a2 75 46
       34230.46 59497.17 52636.336 15720.668
000090 92 16 81 45 f8 42 7f 47 f8 9a 7b 46 e4 57 93 42
       4130.8213 65346.97 16102.742 73.67166
0000a0 c4 7f 09 45 da 96 b4 44 0e 00 20 44 98 27 e7 46
       2199.9854 1444.7141 640.00085 29587.797
0000b0 d9 77 92 46 36 fa 77 45 71 70 01 47 b8 4c 39 45
       18747.924 3967.6382 33136.44 2964.795
0000c0 fa 24 bd 44 0b e8 6d 47 76 2d 88 46 0b ce 41 46
       1513.1555 60904.043 17430.73 12403.511
0000d0 67 47 86 44 4f 84 51 47 8e da da 46 87 a0 76 45
       1074.2313 53636.31 28013.277 3946.033
0000e0 70 e6 fa 45 94 f0 3d 47 51 1d 38 46 e0 71 43 46
       8028.8047 48624.58 11783.329 12508.469
0000f0 0d 5b 01 47 e7 bf 34 43 ea b2 0f 47 92 c1 61 46
       33115.05 180.74962 36786.914 14448.393

weight_ih_l0 f4 [256, 1]
000000 38 43 66 3c ca b2 ba 3d af ac 64 bd a7 e3 7e 3c
       0.014054112 0.091161326 -0.055828746 0.015557206
000010 82 fb 2a 3d 7b 68 d9 3c c9 89 03 be af a2 99 3d
       0.041743763 0.026539078 -0.1284553 0.075017326
000020 e6 77 55 bd 17 1b b4 bd 58 48 8e 3d 97 ab 78 bd
       -0.052116297 -0.087942295 0.06947392 -0.060710516
000030 5a 1f 9a 3d 15 52 90 3d 8d 80 13 3d 3a 41 fc bd
       0.07525511 0.07046906 0.036011267 -0.123171285
000040 fc be 7d bd 69 c6 db 3c 2b 01 a3 bd f8 7a 69 bd
       -0.061949715 0.026828008 -0.07959207 -0.057002038
000050 a7 15 b2 3d 25 e5 6c bd f6 2b ea 3d aa f3 15 3d
       0.08695536 -0.057835717 0.11434166 0.03660933
000060 c3 2d c2 3c 7e 32 a4 bd dc 67 8c bd da f4 d7 bd
       0.023703462 -0.08017443 -0.06855747 -0.105447486
000070 ff 37 eb bd 6d 5a a7 3b 23 97 bd 3d f7 fd 9b bd
       -0.1148529 0.005107215 0.09257343 -0.07616799
000080 ea 30 df bd 26 56 c4 3d a2 9f 9f bb 69 62 81 3d
       -0.108980015 0.09586744 -0.0048713246 0.063175984
000090 b5 d1 67 bd e0 c1 89 3d 95 a4 80 3d f7 6f 64 3d
       -0.056596477 0.06726432 0.062813915 0.05577084
0000a0 18 d8 f1 3c 87 53 f0 3d 3f d8 03 3e ba 53 ca 3c
       0.029521987 0.117346816 0.1287546 0.024698127
0000b0 4d 23 03 be 3c f4 de 3c e6 b7 8b bd 55 a2 f1 bb
       -0.12806435 0.02721607 -0.06822185 -0.007374088
0000c0 02 de a7 bd e6 b2 a3 bd cb 04 9a bd be 0d aa 3d
       -0.081966415 -0.079931065 -0.075204454 0.08303402
0000d0 4f 24 5a 3c 4b 98 fd 3d 87 73 10 bb d3 97 14 3d
       0.013314321 0.12382563 -0.0022041516 0.036277603
0000e0 7e d3 e5 3c 86 1a a9 bd 64 99 d8 3d 81 bf eb 3d
       0.028054949 -0.08257012 0.10576132 0.11511136
0000f0 71 7b d0 bd 4b d1 7e bd e3 99 55 bd 47 76 a4 bd
       -0.101797946 -0.062211316 -0.05214871 -0.08030372
000100 cf e4 4e 3d 3e 35 92 bd 28 56 7f bd be 0a 4a 3d
       0.050511178 -0.071390614 -0.062338024 0.04932665
000110 7e 84 61 bd 01 79 43 3d 3d 97 01 3e d7 8e 06 3d
       -0.055057995 0.04772282 0.12655349 0.032851066
000120 0b ca 87 3d 21 bf d6 bc c5 14 96 3d b8 34 97 3d
       0.066303335 -0.026214184 0.0732818 0.07383102
000130 52 41 dc 3d 91 c5 a8 3d 98 bd f4 bc e7 b4 de 3d
       0.10754646 0.08240808 -0.029875562 0.10874348
000140 61 57 46 3d ec 0c 30 bc 1b d8 06 3e 04 3e 92 3d
       0.048423175 -0.010745268 0.13168375 0.07140735
000150 ab 96 ad bd 01 be fa bd bf a4 45 3c ca 33 52 bd
       -0.08476003 -0.122432716 0.012063204 -0.05131892
000160 2d 4a a3 bd 6d 57 99 3c 8b 41 f0 bd ba 50 ed 3c
       -0.07973132 0.018718446 -0.11731251 0.028969157
000170 6e 73 ce bd 1a db 9f 3c 85 62 dc 3d bd 34 d7 bd
       -0.1008061 0.019513655 0.107609786 -0.10508106
000180 f7 f5 35 3d 4c 24 54 bd 06 1e 39 bb a5 aa 22 bd
       0.044424023 -0.051792428 -0.0028246655 -0.03971352
000190 6e db bb bd 60 e2 c1 bd c9 24 4f 3d 70 9e 8b 3d
       -0.09172712 -0.09467006 0.05057219 0.06817329
0001a0 40 9b 36 3d e5 9b 47 3d 2a 7e ce 3d 0a ac 31 3c
       0.04458165 0.048732657 0.10082658 0.01084424
0001b0 15 12 52 3c 15 1e c0 3d 91 52 f1 bd f3 73 af bd
       0.012821694 0.09380738 -0.117833264 -0.085670374
0001c0 48 b3 cb bd c5 b3 05 3e 0d cd db bd 13 0d 0b 3d
       -0.099463046 0.13056858 -0.1073247 0.033948015
0001d0 9e 74 51 3d cb f9 a0 3c b6 65 18 3d d2 10 e2 bd
       0.051136605 0.01965036 0.037206374 -0.110383645
0001e0 42 b2 e9 3d 7f 0a 22 3c 82 a7 c2 3c 8b 4f ca bc
       0.11410953 0.009890198 0.023761515 -0.024696132
0001f0 3b 1f c9 bd 23 57 73 bd 09 93 f2 bd 92 ac 9e bd
       -0.0982041 -0.059409272 -0.11844451 -0.07747759
000200 10 66 ea 3d 68 4a cb 3b ca 42 f2 3d f7 16 9c 3d
       0.11445248 0.0062039383 0.11829145 0.07621568
000210 88 fb 9f bd 8e 17 a2 bc 3b 0b 5d bd 79 df 04 be
       -0.07811648 -0.019786622 -0.05396579 -0.12975873
000220 0d 3e 5d bd 62 22 b4 bd 8b db 80 bd e2 f0 f3 3c
       -0.054014254 -0.087956205 -0.062918745 0.029777948
000230 8f a7 26 3d dd e8 06 3d 99 0e 90 3b de a4 b4 bd
       0.04068714 0.03293692 0.0043962714 -0.088205084
000240 ab 0e bf bd 7f 9f 6a 3d 3f 7e e0 bd 87 b2 b0 bd
       -0.093289696 0.057281014 -0.109615795 -0.086278014
000250 99 56 ef 3d 78 e6 68 bd 93 cf 54 3d 5b 5b c2 bd
       0.11686439 -0.056860417 0.05195577 -0.09490081
000260 db 8b f4 3c b9 c8 81 3d 25 13 29 3c 56 cd 7a 3d
       0.029851845 0.06337113 0.010319506 0.06123098
000270 15 45 4b bd 46 08 e8 3d 66 20 7a 3c c2 3f 4a 3d
       -0.04962643 0.11329703 0.015266513 0.04937721
000280 55 94 b1 3d 72 1d 2f bd ed 0d 54 bc f6 b6 06 3e
       0.0867087 -0.04275269 -0.012942773 0.13155732
000290 8b 6e fc 3c 33 87 83 3d 45 14 c0 3d 6a c0 6a 3d
       0.03081443 0.064222716 0.09378866 0.057312407
0002a0 9a b7 bc bd f8 a9 5f 3d 3a f8 40 3b ae b0 b0 bd
       -0.09214707 0.054605454 0.002944483 -0.08627449
0002b0 8b 66 7e 3c 47 04 0c 3d f0 80 8c 3c 02 87 01 be
       0.015527378 0.034183767 0.017151326 -0.12649158
0002c0 4c 7b 6a bd 50 60 f5 bd bf d1 10 be a0 24 37 3d
       -0.05724649 -0.11981261 -0.14142512 0.044712663
0002d0 31 b5 54 3d 03 3e db 3d 23 bb 00 3e ae cb f8 3c
       0.05193061 0.10705187 0.12571387 0.03037056
0002e0 b6 58 bc 3c a6 5f e8 bd ec 11 80 bc b6 20 ce 3d
       0.02299152 -0.113463685 -0.015633546 0.10064833
0002f0 66 8d 9a 3c 2d 81 8a 3d d0 b2 a6 3d 58 c0 c8 bd
       0.018866252 0.067629196 0.081395745 -0.09802312
000300 97 72 a6 bd fe 9b 0b 3c e5 d9 5c 3d 60 27 a9 3d
       -0.08127325 0.008521078 0.053918738 0.08259463
000310 13 a8 23 3d 58 8b bf bd 4d 2d 07 3d 45 ae b2 bd
       0.03995521 -0.093527496 0.033002187 -0.087246455
000320 49 d6 ae 3d d5 61 8a 3d 69 78 1e bd 53 20 1b bd
       0.085369654 0.06756941 -0.03868905 -0.037872624
000330 a4 d8 17 3d ad 78 00 be 52 e7 a6 bc 50 fb 25 3d
       0.03707184 -0.12546034 -0.020373974 0.040522873
000340 4a 14 d8 3c 1f ac 09 3e 98 10 59 3d a2 6b 70 bd
       0.026376862 0.13444565 0.05299434 -0.058696397
000350 bf 85 c5 bd 9e ac 45 3d e6 de ae bd cc 7c c3 bd
       -0.09644651 0.048260324 -0.08538608 -0.095452875
000360 33 96 aa 3d 9c 1a 96 bc 38 13 c9 bd f1 61 0c 3d
       0.083294295 -0.018323235 -0.09818119 0.03427309
000370 bd 78 be bd 53 01 c6 3d 0e d7 b5 3d 21 84 8e bd
       -0.09300373 0.09668221 0.08878909 -0.06958795
000380 38 14 60 3d 9b af 07 3e 59 6a bc bd 4f ed 39 3d
       0.054706782 0.13250582 -0.09199972 0.04539233
000390 f5 e4 8f bc 2a de 17 bc 85 f9 92 bd 26 75 18 3c
       -0.01756523 -0.009269277 -0.07176498 0.009305274
0003a0 46 93 a9 3b d2 84 78 bd 46 36 7a 3c 80 e0 f2 3b
       0.005175027 -0.060673542 0.015271729 0.0074120164
0003b0 8e c7 5e 3d 1d e9 a2 bc 3a e6 42 3d 94 b4 9d 3d
       0.05438953 -0.019886548 0.047582842 0.07700458
0003c0 4e 78 f2 39 e3 d4 b5 bd 35 ec 1d bd 10 b9 10 3d
       0.0004624747 -0.088784955 -0.038555343 0.03533274
0003d0 55 f9 cf 3d da 92 15 bd 8e 5e be 3d f1 c0 f5 bd
       0.10154978 -0.036517 0.092953786 -0.11999691
0003e0 d7 2a be bd a7 b0 6e ba 3c 9f f5 bd a8 69 16 3e
       -0.09285515 -0.0009105303 -0.11993262 0.14688742
0003f0 e6 22 83 bd 77 b7 d6 bd c1 e4 a1 3d 74 b6 b4 bd
       -0.06403141 -0.10484212 0.079049595 -0.08823863
